models/clarvis_int8.onnx (onnx, 291772 bytes, 31 tensors)

norm_in.weight f4 [1536]
0	0x3f9a6774	1.2062821
1	0x3f7454fb	0.9544217
2	0x3fa477ce	1.2849061
3	0x3fa10acb	1.2581419
4	0x3fa7cb3b	1.3108896
5	0x3f502cc6	0.8131832
6	0x3f8cc854	1.0998635
7	0x3f932786	1.1496437
8	0x3fa03f06	1.2519233
9	0x3f7eb54f	0.99495405
10	0x3f848d41	1.0355607
11	0x3f9b2aee	1.2122476
12	0x3fb64235	1.4238955
13	0x3f94a47d	1.1612698
14	0x3f8f163e	1.1178663
15	0x3fa23543	1.2672504
16	0x3f98d2d4	1.193934
17	0x3fa58feb	1.2934545
18	0x3f9a77ae	1.2067773
19	0x3f9327ea	1.1496556
20	0x3fa090e6	1.254422
21	0x3f7fafa7	0.998774
22	0x3f82908f	1.0200366
23	0x3fa340c6	1.2754142
24	0x3f8611e9	1.0474216
25	0x3fabf931	1.3435422
26	0x3f61a787	0.8814625
27	0x3fa7a8e2	1.3098414
28	0x3fa0e60d	1.2570206
29	0x3f9950a5	1.1977736
30	0x3f894e5d	1.072704
31	0x3f9cca5d	1.2249256
32	0x3f6fd4e1	0.936842
33	0x3f9fe45b	1.2491564
34	0x3f8d1fc9	1.1025325
35	0x3f97015a	1.1797287
36	0x3f637d69	0.88863236
37	0x3f854d5b	1.0414232
38	0x3f96be3b	1.1776804
39	0x3f5042fe	0.8135222
40	0x3f8b4e32	1.0883238
41	0x3fa42683	1.2824253
42	0x3f3bd508	0.73371935
43	0x3f6f2770	0.9341955
44	0x3f9c5b5e	1.2215383
45	0x3f944cad	1.15859
46	0x3f8893e3	1.0670131
47	0x3fbbfb48	1.468606
48	0x3f905846	1.1276939
49	0x3f956a97	1.1673154
50	0x3fad87e0	1.3557091
51	0x3f925d5a	1.1434739
52	0x3fa31742	1.2741473
53	0x3faf50f2	1.3696578
54	0x3f81fa4e	1.0154512
55	0x3f868382	1.0508883
56	0x3f8f10c0	1.1176987
57	0x3f59688f	0.8492517
58	0x3f7db938	0.99110746
59	0x3f888fb4	1.0668855
60	0x3f8cd1df	1.1001548
61	0x3fa8eec7	1.3197869
62	0x3f9879b2	1.1912138
63	0x3f998c4b	1.1995939
64	0x3f840bea	1.0316136
65	0x3f9b7967	1.2146424
66	0x3f9a6ed8	1.2065077
67	0x3f8b769d	1.0895573
68	0x3fab6062	1.3388789
69	0x3fad249b	1.3526796
70	0x3faa0b0b	1.328462
71	0x3f80670f	1.0031451
72	0x3fa6d81b	1.30347
73	0x3fa2082a	1.2658741
74	0x3f921d51	1.1415197
75	0x3fa61c97	1.2977475
76	0x3fb1450f	1.38492
77	0x3f97864a	1.1837857
78	0x3f653042	0.8952676
79	0x3f678f3a	0.9045292
80	0x3f9d8efa	1.2309258
81	0x3f8d24eb	1.1026891
82	0x3f7895a4	0.97103333
83	0x3f8e0d5f	1.109783
84	0x3fa191e9	1.2622653
85	0x3fa77ac1	1.3084337
86	0x3fa78514	1.3087487
87	0x3f9c7568	1.222333
88	0x3fb544c2	1.4161608
89	0x3f624197	0.8838133
90	0x3f8f09b8	1.1174841
91	0x3f87eddb	1.0619463
92	0x3f6d7e48	0.92770815
93	0x3f7b30b0	0.98121166
94	0x3f9e528d	1.2368942
95	0x3f936604	1.1515508
96	0x3f74e989	0.95668846
97	0x3f415801	0.7552491
98	0x3fab3a56	1.3377178
99	0x3f93d250	1.1548557
100	0x3f8925b2	1.0714629
101	0x3f2d8fd8	0.67797613
102	0x3f7d0a57	0.988439
103	0x3f865096	1.0493343
104	0x3f7f0973	0.99623793
105	0x3f725ece	0.9467591
106	0x3f66aa37	0.9010348
107	0x3f810935	1.0080935
108	0x3f92b6b5	1.1462008
109	0x3f814542	1.0099261
110	0x3f6f58f8	0.9349513
111	0x3f8297d6	1.0202587
112	0x3f8742cc	1.056726
113	0x3f82ef4f	1.0229281
114	0x3f8987bb	1.0744547
115	0x3f7a4fd6	0.9777807
116	0x3f83e12a	1.030309
117	0x3f5b1def	0.8559255
118	0x3f6be9e3	0.9215376
119	0x3fa0873d	1.2541271
120	0x3f8c4fbf	1.0961837
121	0x3f8184ee	1.0118692
122	0x3f3bac47	0.7330975
123	0x3f932f16	1.1498744
124	0x3f91f4dc	1.140285
125	0x3f7c3ae9	0.9852739
126	0x3f76c190	0.963891
127	0x3f8a27e3	1.0793422
128	0x3f55787a	0.8338696
129	0x3f88473b	1.0646738
130	0x3f7c4858	0.9854789
131	0x3f809d67	1.0048035
132	0x3f504261	0.81351286
133	0x3f606fe7	0.8767075
134	0x3f838a3f	1.0276564
135	0x3f40da3e	0.7533301
136	0x3f7909e7	0.97280735
137	0x3f8397c2	1.0280688
138	0x3f32a696	0.6978544
139	0x3f4b135a	0.79326403
140	0x3f7a7d16	0.97847116
141	0x3f826717	1.018771
142	0x3f51c621	0.81942946
143	0x3f8c2ab1	1.0950528
144	0x3f7f5bfb	0.99749726
145	0x3f6a656c	0.9156101
146	0x3f868770	1.0510082
147	0x3f859d2f	1.0438594
148	0x3f82c85c	1.0217395
149	0x3f8da14b	1.1064848
150	0x3f700efd	0.9377287
151	0x3f6a3bdc	0.9149759
152	0x3f7c5d58	0.9857993
153	0x3f52ede9	0.8239427
154	0x3f5a3812	0.85241807
155	0x3f876e94	1.0580621
156	0x3f703a74	0.9383919
157	0x3f8aad8c	1.0834212
158	0x3f8aae7f	1.0834502
159	0x3f7d620e	0.98977745
160	0x3f6a3f0a	0.9150244
161	0x3f689c50	0.90863514
162	0x3f82880e	1.019777
163	0x3f7fa58e	0.9986199
164	0x3f9a85b8	1.2072058
165	0x3f891454	1.0709329
166	0x3f927556	1.1442058
167	0x3f70cc0d	0.94061357
168	0x3f913261	1.13435
169	0x3f88d246	1.068917
170	0x3f6d6783	0.9273607
171	0x3f926bb1	1.1439115
172	0x3f8e8b9e	1.1136358
173	0x3f81b083	1.0131992
174	0x3f2f6179	0.68508106
175	0x3f31d8d0	0.69471455
176	0x3f8b8bf9	1.0902091
177	0x3f6fe2a7	0.9370522
178	0x3f73bc85	0.9520953
179	0x3f76e9ae	0.96450317
180	0x3f86a2ef	1.0518473
181	0x3f7b7288	0.98221636
182	0x3f9976bc	1.198936
183	0x3f816ac6	1.011071
184	0x3f851fef	1.040037
185	0x3f4c5f71	0.7983313
186	0x3f7bf6c3	0.98423404
187	0x3f6f1e22	0.93405354
188	0x3f52f5a3	0.8240606
189	0x3f61e202	0.88235486
190	0x3f876821	1.0578653
191	0x3f6feac6	0.9371761
192	0x3f40b3fd	0.7527464
193	0x3f2e5794	0.68102384
194	0x3f831f6f	1.0243968
195	0x3f6b435d	0.91899663
196	0x3f6b19e4	0.9183638
197	0x3f2ba6c7	0.6705136
198	0x3f660ec9	0.8986631
199	0x3f6b8f16	0.92015207
200	0x3f6dbf70	0.92870235
201	0x3f3e52e0	0.7434521
202	0x3f47044e	0.77740943
203	0x3f5bf6c6	0.8592342
204	0x3f7d93f6	0.99053895
205	0x3f54f9ba	0.8319355
206	0x3f6cb135	0.92457896
207	0x3f565d21	0.83735853
208	0x3f543ef1	0.8290854
209	0x3f773d62	0.9657804
210	0x3f6d96b7	0.928081
211	0x3f554771	0.83312136
212	0x3f54578d	0.8294609
213	0x3f306381	0.6890183
214	0x3f54c9f7	0.83120674
215	0x3f6c29d8	0.9225135
216	0x3f64a483	0.89313525
217	0x3f64b6f1	0.89341646
218	0x3f1f8564	0.6231291
219	0x3f68fca8	0.9101052
220	0x3f651ecb	0.8950011
221	0x3f619d5e	0.8813075
222	0x3f678455	0.904363
223	0x3f7f6903	0.9976961
224	0x3f39429f	0.7236728
225	0x3f6d1a27	0.9261803
226	0x3f5dbcb6	0.86616075
227	0x3f63bc3a	0.88959086
228	0x3f2ff33b	0.68730515
229	0x3f35ac19	0.70965725
230	0x3f6b949e	0.92023647
231	0x3f20174d	0.62535554
232	0x3f584953	0.84486884
233	0x3f6c78b8	0.923717
234	0x3f2c4ed4	0.6730778
235	0x3f3aa68d	0.72910386
236	0x3f54df4f	0.8315324
237	0x3f63b061	0.8894101
238	0x3f45ff5e	0.77342784
239	0x3f844714	1.0334191
240	0x3f46803f	0.7753944
241	0x3f3ab71d	0.7293566
242	0x3f76e35c	0.9644067
243	0x3f730f4e	0.9494523
244	0x3f7327fe	0.949829
245	0x3f81f533	1.0152954
246	0x3f511124	0.8166678
247	0x3f3a7793	0.72838706
248	0x3f6a5e29	0.91549927
249	0x3f37f7ed	0.7186268
250	0x3f3e2c6e	0.74286544
251	0x3f71df3e	0.94481266
252	0x3f4d419a	0.80178225
253	0x3f66a7a6	0.9009956
254	0x3f70e35b	0.94096917
255	0x3f61c43a	0.8819004

norm_in.bias f4 [1536]
0	0x3d973cc8	0.0738464
1	0xbdfa6f2a	-0.12228234
2	0xbd3fea3d	-0.046854246
3	0xbd461b5d	-0.04836594
4	0xbd913df2	-0.07091893
5	0xbe69dcb5	-0.228381
6	0xbcee68bc	-0.029102676
7	0x3dcc27f2	0.099685565
8	0xbd3c1611	-0.04591948
9	0xbe00f8e6	-0.12594947
10	0x3dcc28c7	0.09968715
11	0x3da3c089	0.079957075
12	0x3d5392a4	0.05165352
13	0x3db1098d	0.086444
14	0x3d28d2ff	0.041216847
15	0xbd5b5473	-0.053547334
16	0x3d81eb78	0.0634374
17	0xbd21a1a0	-0.03946078
18	0x3c2a414a	0.010391543
19	0x3dd25b16	0.102712795
20	0x3d000b14	0.031260565
21	0xbe3da35a	-0.18519345
22	0x3dc9fac8	0.09862286
23	0x3d987883	0.07444861
24	0x3d558f7a	0.052138783
25	0xbd5f89ff	-0.054574963
26	0x3e230a6a	0.15921941
27	0xbd3634a0	-0.04448378
28	0x3c377dac	0.011199396
29	0xbd5f416e	-0.054505758
30	0x3a3d7a6c	0.000722802
31	0x3cf3b6b5	0.029750207
32	0x3e0fdf5b	0.14050047
33	0x3d4ea9cc	0.0504549
34	0x3dc555bf	0.096354954
35	0xbd567cfc	-0.05236529
36	0xbe1c3dbf	-0.1525793
37	0xbe3fb136	-0.18719944
38	0xbd64b508	-0.055836707
39	0xbe6c7632	-0.23091963
40	0x3db820be	0.0899062
41	0xbd0ddf85	-0.034636993
42	0xbe4c4a6a	-0.19950262
43	0x3e208094	0.15674049
44	0xbcdf2f0a	-0.02724411
45	0x3cb24164	0.021759696
46	0x3d94a626	0.07258253
47	0xbd4e1ef8	-0.050322503
48	0xbb2e9ce7	-0.0026643814
49	0x3d99d935	0.07512132
50	0x3d4bdae9	0.049769316
51	0xbd9c9413	-0.076454304
52	0xbd95be36	-0.073116705
53	0xbd2fb850	-0.042900383
54	0x3d545b78	0.051845044
55	0x3a5fa052	0.00085306645
56	0x3db17436	0.086647436
57	0xbdc4cc6a	-0.096093014
58	0x3df9e3e0	0.12201667
59	0x3c6fa4ec	0.014626723
60	0xbdaa4588	-0.08314043
61	0xbae3e7f1	-0.001738785
62	0x3d7fae08	0.06242183
63	0x3dccb829	0.09996063
64	0xbcfd8550	-0.030947357
65	0xbdf9dedf	-0.122007124
66	0xbd2f1d0e	-0.042752318
67	0x3ce0c5d9	0.027438091
68	0xbd1b4d85	-0.037915725
69	0x3da4216b	0.080141865
70	0xbd49943b	-0.04921363
71	0xbe0272c6	-0.12739095
72	0xbdadaf88	-0.084807456
73	0xbcd37466	-0.025812339
74	0xbbb4fa29	-0.0055229855
75	0x3d80815a	0.06274672
76	0x3c9437d8	0.018093035
77	0xbce3243b	-0.027727237
78	0x3e0c5338	0.1370362
79	0x3e0eb153	0.13934831
80	0xbd747642	-0.059683092
81	0xbda6da83	-0.081471466
82	0xbe229875	-0.1587847
83	0x3dddcc15	0.10829941
84	0x3d2ccd1f	0.042187806
85	0xbd35c924	-0.044381276
86	0x3c90eb9e	0.017690476
87	0x3d84318a	0.06454761
88	0x3bc7a17f	0.00609225
89	0xbdc5baef	-0.096547954
90	0xbb7e91b3	-0.0038844168
91	0xbe1aac3a	-0.15104762
92	0xbe3cf092	-0.18451145
93	0x3e0af9fd	0.13571925
94	0xbbaa78ca	-0.0052023875
95	0xbdc7fe6f	-0.09765326
96	0x3e3ab0c0	0.18231487
97	0xbe5e083f	-0.21682833
98	0xbd0327de	-0.032020442
99	0xbd45b9cd	-0.048272897
100	0xbdbfc3bb	-0.093635045
101	0xbe9c3a14	-0.3051306
102	0xbe05dd2f	-0.13072656
103	0xbbbbe0ae	-0.005733571
104	0xbda7c900	-0.081926346
105	0xbe167936	-0.14694676
106	0x3e20af3a	0.15691844
107	0x3de289a5	0.1106141
108	0x3c7947e3	0.015214893
109	0x3e031ce7	0.12803994
110	0x3bcb7163	0.006208585
111	0xbd7ef96a	-0.06224958
112	0x3ce5467d	0.027987713
113	0xb9dc859b	-0.00042061214
114	0x3c8386f3	0.01605556
115	0x3e36f3ce	0.17866442
116	0xbd7e2c4e	-0.06205397
117	0xbe793ca2	-0.24339536
118	0x3e0f6033	0.14001541
119	0x3d891e35	0.06695215
120	0xbbd4c1d3	-0.006492832
121	0xbdeba037	-0.11505168
122	0x3e971fa9	0.29516342
123	0xbdd65b32	-0.10466613
124	0xbdb64dcc	-0.08901557
125	0xbd1ee499	-0.038792226
126	0x3d34eced	0.044171263
127	0x3cab1308	0.020883098
128	0x3dcb9ac6	0.0994163
129	0x3db15191	0.08658136
130	0x3e1fc215	0.1560138
131	0xbb24aa13	-0.0025125786
132	0xbe5c7441	-0.21528722
133	0xbe1b9b8e	-0.15196058
134	0xbd4fe0cf	-0.050751504
135	0xbe7105c5	-0.23537357
136	0x3e081fb8	0.1329335
137	0xbda317c1	-0.07963515
138	0xbe721d88	-0.23644078
139	0x3e4e1228	0.20124114
140	0x3cd80630	0.026370138
141	0x3e0177e8	0.12643397
142	0x3e223df9	0.15843953
143	0xbd34576b	-0.04402868
144	0xbdf805f5	-0.12110511
145	0x3d567c48	0.052364618
146	0x3c73870c	0.014863741
147	0xbdbfb2f2	-0.09360303
148	0xbda348c0	-0.0797286
149	0xbcb412a6	-0.021981549
150	0x3e164e32	0.14678267
151	0x3d8b55af	0.06803452
152	0x3dfc4174	0.12317172
153	0xbe12068f	-0.14260314
154	0x3e3ac26f	0.18238233
155	0x3c348e91	0.011020319
156	0xbdae5a2e	-0.08513294
157	0xbd6ff106	-0.058579467
158	0x3cfb7969	0.030697541
159	0x3dec3d6e	0.11535154
160	0xbda91992	-0.0825683
161	0xbe0ca81c	-0.13736004
162	0x3c1f0b8b	0.009707342
163	0x3e384691	0.17995669
164	0x3c71a536	0.014748862
165	0x3d084df2	0.03327746
166	0xbcd045ef	-0.025423972
167	0xbe37f255	-0.17963536
168	0xbd1d329e	-0.03837835
169	0xbce7ca6b	-0.028294763
170	0xbd97e7d0	-0.074172616
171	0x3d414e91	0.047194067
172	0x3d79b385	0.06096222
173	0xbad5e3ec	-0.0016318536
174	0x3e88d0cf	0.26721808
175	0x3e95d0f4	0.2926098
176	0xbcf0caba	-0.029393543
177	0xbd58bc62	-0.05291403
178	0xbe0d5745	-0.13802822
179	0x3e168235	0.14698108
180	0xbc739ea8	-0.01486937
181	0x3c6edc15	0.014578839
182	0xbd074499	-0.033024404
183	0x3dcb7f02	0.09936334
184	0x3d2b90b1	0.041886035
185	0xbe14594c	-0.14487189
186	0xbd019e62	-0.031645186
187	0xbd912693	-0.070874356
188	0xbe4b102e	-0.19830391
189	0x3e3b94f5	0.18318541
190	0xbdd47788	-0.10374361
191	0xbe1188be	-0.14212319
192	0x3e779513	0.24177961
193	0xbe87b141	-0.26502421
194	0xbcac7b6b	-0.021054944
195	0xbd3d3e81	-0.046202186
196	0xbdb8691b	-0.09004422
197	0xbe9bd775	-0.30437818
198	0xbe175069	-0.14776768
199	0x3d2c97d7	0.042136993
200	0xbdf14338	-0.11780399
201	0xbe3c4fc2	-0.183898
202	0x3e531b28	0.20615828
203	0x3e14ff7a	0.14550582
204	0xbd372eda	-0.044722416
205	0x3e2a99fc	0.16660303
206	0x3dcc2b36	0.09969179
207	0xbca63f0c	-0.020293735
208	0x3d1139a2	0.035455354
209	0x3dc2c314	0.095098644
210	0xbd7dc76b	-0.061957758
211	0x3e7cb8da	0.2467989
212	0xbdd9d36b	-0.10636028
213	0xbe946c66	-0.2898895
214	0x3e197b1b	0.14988367
215	0x3dd81056	0.10549991
216	0x3d8db079	0.06918425
217	0xbe2f6912	-0.17129925
218	0x3ea3d252	0.319964
219	0xbdfe80b8	-0.12426895
220	0xbe001174	-0.12506658
221	0xbc32d200	-0.010914326
222	0x3db5b076	0.08871548
223	0xbd3bd80d	-0.04586034
224	0x3e30527a	0.17218962
225	0x3e06671e	0.13125274
226	0x3e20b816	0.15695223
227	0xbbbb29e8	-0.0057117827
228	0xbe914111	-0.28369954
229	0xbe658c8a	-0.22416893
230	0xbd6a8c35	-0.057262618
231	0xbe9c9e1c	-0.30589378
232	0x3e3f6002	0.18688968
233	0xbdd22772	-0.1026143
234	0xbe4991d5	-0.19684537
235	0x3e72c777	0.23708902
236	0x3dcb6ce9	0.09932882
237	0x3e226451	0.1585858
238	0x3e0a31c8	0.13495553
239	0xbc678a48	-0.01413209
240	0xbe6950fb	-0.22784798
241	0x3d960e83	0.07326987
242	0x3cc3a9ee	0.02388474
243	0xbdf25848	-0.118332446
244	0xbddafb85	-0.10692505
245	0x3d25c8ed	0.04047482
246	0x3e3bad48	0.1832782
247	0x3e5ef2cb	0.21772306
248	0x3e0883c3	0.13331513
249	0xbe5c51a8	-0.21515524
250	0x3e5d00b0	0.21582294
251	0x3e0ebdec	0.13939637
252	0xbdb1b357	-0.086767845
253	0xbdf96bb4	-0.12178746
254	0xbc85df9d	-0.016341979
255	0x3e119bf7	0.14219652

mlp_in.hidden.bias f4 [64]
0	0xbcd31f54	-0.025771774
1	0x3ad22a50	0.0016034339
2	0xbb952c07	-0.0045523676
3	0xbcbabfe6	-0.022796582
4	0xbbb26263	-0.0054438575
5	0xbbc86549	-0.0061155898
6	0xbcbf715e	-0.023369487
7	0xbb7b0fbe	-0.0038308944
8	0x3d0dc0d3	0.03460772
9	0x3c8573a0	0.016290486
10	0xbc2d4cfa	-0.010577435
11	0xbcd87ad3	-0.026425755
12	0xbd07c8a6	-0.033150338
13	0x3d3e63c8	0.046481878
14	0xbd24b79a	-0.04021416
15	0x3c9ed609	0.01938917
16	0xbc97f4a4	-0.01854927
17	0xbcbf4b57	-0.023351355
18	0xbb099a4c	-0.002099651
19	0xbd53fec8	-0.05175665
20	0x3c824c37	0.015905483
21	0x3bad2bff	0.0052847858
22	0x3d5a652d	0.053319145
23	0x388bf4a4	6.6736044e-05
24	0x3abab6eb	0.0014245188
25	0xbd0097f6	-0.03139492
26	0xba8bc823	-0.0010664504
27	0x3c766e83	0.0150409965
28	0x3ceac58b	0.028658649
29	0x3d23f64a	0.0400298
30	0xbcc1c1d0	-0.023651987
31	0xbc79e4fc	-0.015252348
32	0x3c111f71	0.008857594
33	0xbb09b15f	-0.0021010262
34	0xbbdfd6a2	-0.006831006
35	0xbca2b9fd	-0.019864077
36	0xbcfab83a	-0.030605424
37	0x3d02ec66	0.03196373
38	0x3c822b6d	0.015889848
39	0x3c4ca318	0.012490056
40	0xbb7fff8d	-0.0039062232
41	0xbb830898	-0.003998827
42	0x3a1f6e80	0.00060818344
43	0x3bac1698	0.005251717
44	0xbc62c040	-0.013839781
45	0x3cc7c160	0.0243842
46	0xbcb5a3bc	-0.022172801
47	0x3c2e6ba6	0.010645783
48	0xbca20687	-0.019778503
49	0xbc1c0fcc	-0.009525251
50	0xbbede14e	-0.0072595244
51	0xbcd628fc	-0.02614259
52	0xbd1911ee	-0.037370615
53	0xbad83f49	-0.0016498353
54	0xbbedb5c4	-0.007254334
55	0x3c148fac	0.009067457
56	0xbbd29907	-0.0064269337
57	0xbd22975d	-0.039695133
58	0x3a154534	0.0005694211
59	0xbcbcf2ff	-0.023065088
60	0xbc3a4bf2	-0.011370646
61	0x3c020e0c	0.007937919
62	0xbc529ec1	-0.012855233
63	0xbc01b3c7	-0.007916397

mlp_in.output.bias f4 [96]
0	0xbdf194fc	-0.11795995
1	0x3e67a015	0.2261966
2	0xbe13f451	-0.14448668
3	0x3e03e1eb	0.1287915
4	0x3ddcc58b	0.10779866
5	0x3d2a89a6	0.041635178
6	0x3d08b936	0.033379756
7	0x3e0674e4	0.13130528
8	0x3db78911	0.0896169
9	0xbdde2066	-0.10846023
10	0x3d014c28	0.03156677
11	0x3c9cad01	0.019125463
12	0xbdc4c7fe	-0.09608458
13	0x3d70d270	0.05879444
14	0xbcfb2259	-0.030656027
15	0xbd6e79f0	-0.058221757
16	0x3dfe715f	0.124239676
17	0x3da9ac4e	0.08284818
18	0x3e1a5d37	0.15074621
19	0xbdd003a9	-0.10156948
20	0x3d1a0da5	0.03761067
21	0xbd9fdeeb	-0.0780619
22	0x3d63d431	0.055622283
23	0x3ddf99a1	0.10917974
24	0x3dc3b3e8	0.09555799
25	0xbdc5ebc8	-0.09664112
26	0xbd95b3ec	-0.07309708
27	0xbc189dc9	-0.009314963
28	0xbdc16db7	-0.094447546
29	0x3d2d68ed	0.042336393
30	0xbd642b12	-0.055705138
31	0xbde1cd8f	-0.11025535
32	0xbda811d3	-0.08206525
33	0x3d955ba3	0.07292869
34	0xbdd56137	-0.10418933
35	0x3d59c45e	0.053165786
36	0xbdf33027	-0.11874419
37	0x3e558738	0.20852363
38	0xbdc44444	-0.09583333
39	0x3da443e8	0.080207646
40	0xbe6cb8a5	-0.23117311
41	0x3dd84b33	0.10561218
42	0xbe2c6177	-0.16834055
43	0x3d76be12	0.06023986
44	0xbd742419	-0.059604738
45	0xbe16b687	-0.14718066
46	0xbde6e0c1	-0.11273337
47	0x3dacb9a7	0.08433848
48	0x3e0c0bfd	0.13676448
49	0xbe1947be	-0.14968774
50	0xbc377237	-0.011196665
51	0xbd53bf63	-0.051696192
52	0x3e33f64b	0.17574422
53	0xbb92a662	-0.004475401
54	0x3cd810b0	0.026375145
55	0xbd9f9ae8	-0.07793218
56	0x3d82d672	0.063885584
57	0xbd76e35e	-0.060275428
58	0x3e5eb01b	0.21746866
59	0x3dd92ec3	0.10604622
60	0x3ddcc7d3	0.10780301
61	0xbdf519d3	-0.11967816
62	0x3e3e40da	0.18579426
63	0x3e0be22b	0.13660495
64	0x3dde4daa	0.10854657
65	0xbdae7452	-0.0851828
66	0xbbf20074	-0.007385308
67	0x3e659169	0.22418751
68	0xbd54980f	-0.051902827
69	0x3d9ddba2	0.07707907
70	0x3c9f9475	0.01947997
71	0xbe667347	-0.22504912
72	0xbd9fbc20	-0.07799554
73	0xbdb93b00	-0.090444565
74	0xbc665045	-0.014057224
75	0xbc014bc0	-0.007891595
76	0xbdd46a1b	-0.103718005
77	0xbe5651a4	-0.20929581
78	0xbceca723	-0.02888829
79	0xbcfb1d43	-0.030653602
80	0xbd96442e	-0.07337223
81	0x3d3c6b71	0.0460009
82	0x3d1af0ae	0.037827186
83	0xbe016ea0	-0.12639856
84	0xbe3cd460	-0.1844039
85	0xbd9d97b9	-0.076949544
86	0x3dabec7b	0.083947144
87	0x3dfbdcc8	0.1229797
88	0xbda2b626	-0.07944898
89	0x3e234e40	0.15947819
90	0xbca35dff	-0.019942282
91	0x3e0cc131	0.13745572
92	0x3e2f04c3	0.1709166
93	0xbc0be81d	-0.008539227
94	0xbe53ef25	-0.20696695
95	0x3e1d1c86	0.15342912

mlp_in.gate.bias f4 [64]
0	0x3d0a052d	0.033696342
1	0xbd979bfa	-0.07402797
2	0xbceab050	-0.028648525
3	0x3c3743cc	0.011185598
4	0x3d777aef	0.060419973
5	0x3c839a98	0.016064927
6	0xbd5223fd	-0.051303852
7	0x3cc60be8	0.0241756
8	0xbcc8e8d4	-0.024525084
9	0x3b7c47f9	0.0038495047
10	0xbc947b3e	-0.018125173
11	0xbc905173	-0.017616963
12	0xbba8a5ff	-0.0051467414
13	0xbd9394ea	-0.072061375
14	0xbd8f2223	-0.06988933
15	0x3c50722e	0.012722535
16	0xbd4f4edc	-0.050612316
17	0x3d0d747f	0.034534927
18	0xbcf1a5c9	-0.029497998
19	0x3d8bf8a2	0.06834532
20	0x3bbba848	0.005726848
21	0xbcbba539	-0.022905933
22	0x3d5d3850	0.054008782
23	0x3ab3df3b	0.0013723144
24	0x3d2b40f5	0.041809995
25	0x3d28cc5c	0.041210517
26	0x3dbf72a2	0.09348036
27	0x3d0606ec	0.032721445
28	0xbdb9abd2	-0.09065975
29	0x3da0ca74	0.07851115
30	0xbd96d45d	-0.07364724
31	0x3ccd72bb	0.025079122
32	0x3bffb465	0.007803487
33	0x3ccd0605	0.025027284
34	0x3d3a784e	0.045524888
35	0x3d64459e	0.055730455
36	0x3d2ebb9a	0.04265938
37	0x3d2ffbf1	0.04296488
38	0x3d0503a7	0.032474186
39	0x3dc0a973	0.0940732
40	0xbd4c4790	-0.049872935
41	0xbca66130	-0.020310014
42	0xbd530e51	-0.051527325
43	0xbc9353e9	-0.017984347
44	0xbd0e4d86	-0.0347419
45	0x3d00479f	0.031318303
46	0xbd4300f0	-0.047608316
47	0x3c51f847	0.012815542
48	0x3cd71792	0.026256356
49	0xbc8b9880	-0.017040491
50	0xbced58db	-0.028973034
51	0x3bde21bf	0.006778925
52	0x3de5d5d3	0.11222424
53	0x3d382369	0.044955645
54	0x3d2a3258	0.041551918
55	0x3d08123d	0.03322052
56	0x3dbba29c	0.09161875
57	0xbc3715b2	-0.011174606
58	0x3da83292	0.082127705
59	0xbd826cbb	-0.06368395
60	0x3c7cafb5	0.015422751
61	0x3c0dd708	0.0086572245
62	0xbcee5d92	-0.029097352
63	0xbc27c963	-0.010240885

layers.0.0.weight f4 [96]
0	0x3f6f1ee0	0.93406487
1	0x3f659f5e	0.896963
2	0x3f5ea7e1	0.8697491
3	0x3f737bcf	0.9511079
4	0x3f564647	0.83700985
5	0x3f4c97ea	0.799193
6	0x3f53de28	0.8276086
7	0x3f66a9fa	0.90103114
8	0x3f665c74	0.8998482
9	0x3f61cce9	0.88203293
10	0x3f6ee8b7	0.93323845
11	0x3f636769	0.88829666
12	0x3f743e8e	0.9540795
13	0x3f6fb7b5	0.9363969
14	0x3f5f2977	0.87172645
15	0x3f513624	0.8172324
16	0x3f5cb7e1	0.86218077
17	0x3f6c2524	0.9224417
18	0x3f56a8ff	0.8385162
19	0x3f6432ba	0.891399
20	0x3f5b3cac	0.8563945
21	0x3f5eebcb	0.8707854
22	0x3f62283c	0.8834264
23	0x3f5ea02e	0.86963165
24	0x3f5ef1fc	0.8708799
25	0x3f67772b	0.9041621
26	0x3f7233f7	0.9461054
27	0x3f643a22	0.89151204
28	0x3f6ce554	0.92537427
29	0x3f6df9ba	0.9295918
30	0x3f5d606e	0.86475265
31	0x3f5eb1e5	0.86990196
32	0x3f79e402	0.9761354
33	0x3f655d04	0.89595056
34	0x3f686051	0.9077197
35	0x3f548178	0.83010054
36	0x3f681acf	0.90665907
37	0x3f6a51da	0.91531146
38	0x3f669a26	0.9007896
39	0x3f6c9b96	0.92424905
40	0x3f6f2fb6	0.93432176
41	0x3f50e1c6	0.815945
42	0x3f649d0c	0.89302135
43	0x3f776921	0.9664479
44	0x3f60cc41	0.87811667
45	0x3f68b770	0.90904903
46	0x3f58596d	0.8451145
47	0x3f6badc3	0.92062014
48	0x3f770019	0.96484524
49	0x3f61ec3b	0.88251084
50	0x3f6646c5	0.89951736
51	0x3f6f43f1	0.93463045
52	0x3f6a60ff	0.91554254
53	0x3f4d13f4	0.8010857
54	0x3f6c753d	0.9236639
55	0x3f651ca5	0.89496833
56	0x3f71bb9f	0.9442691
57	0x3f6151d2	0.8801547
58	0x3f546dcc	0.82980037
59	0x3f5b10e9	0.8557268
60	0x3f622e32	0.8835174
61	0x3f63b0fe	0.88941944
62	0x3f739487	0.9514851
63	0x3f67e719	0.90587
64	0x3f6b2f9a	0.9186951
65	0x3f6d90d3	0.9279911
66	0x3f52affd	0.82299787
67	0x3f564fea	0.8371569
68	0x3f60b4fc	0.8777616
69	0x3f641267	0.8909058
70	0x3f52ed5c	0.8239343
71	0x3f56d593	0.8391964
72	0x3f6f3a31	0.9344817
73	0x3f4c7495	0.7986539
74	0x3f5bd736	0.8587526
75	0x3f5b7185	0.8572009
76	0x3f5afcf8	0.8554225
77	0x3f6e0e56	0.92990625
78	0x3f60fa5c	0.8788202
79	0x3f6e4e6d	0.9308842
80	0x3f4fccfc	0.81172156
81	0x3f4485ad	0.76766473
82	0x3f632adb	0.8873727
83	0x3f670ed2	0.9025699
84	0x3f5c7816	0.86120737
85	0x3f626404	0.8843386
86	0x3f6bd4cb	0.9212157
87	0x3f60fe8a	0.87888396
88	0x3f67f6a5	0.90610725
89	0x3f6336e7	0.8875565
90	0x3f600649	0.8750959
91	0x3f6c63a1	0.9233952
92	0x3f5ceb41	0.8629647
93	0x3f65ad2f	0.8971738
94	0x3f65e7b2	0.89806664
95	0x3f5ffa37	0.8749117

layers.0.0.bias f4 [96]
0	0xbcc460dc	-0.023971967
1	0x3c258a45	0.010103767
2	0xbc84420c	-0.016144775
3	0x3c987cae	0.01861414
4	0xbc4c2934	-0.012460995
5	0x3d3d01dc	0.04614435
6	0x3c619cf8	0.013770334
7	0x3c9b8b10	0.018987209
8	0xbcd5b771	-0.026088448
9	0xbd12e79a	-0.035865404
10	0x3a579ffe	0.000822544
11	0xbd243a88	-0.040094882
12	0xbcb77f45	-0.022399554
13	0xbc788381	-0.015168072
14	0x3cef7528	0.02923067
15	0x3d88e736	0.06684725
16	0x3cc50205	0.024048815
17	0x3ca9ce9a	0.020728398
18	0xbd7a1650	-0.061056435
19	0x3d0c450f	0.034245547
20	0xbd1d1caa	-0.038357414
21	0x3cb9a77d	0.022662872
22	0xbd146fa5	-0.036239285
23	0x3c7c139e	0.0153855365
24	0x3d69c8bf	0.057076212
25	0x3d16e5ec	0.036840364
26	0xbce7bf00	-0.028289318
27	0xbd27c698	-0.040960878
28	0xbbe3d337	-0.006952669
29	0x3c6e47ac	0.014543455
30	0x3d17db3e	0.03707432
31	0xbc772b60	-0.015086025
32	0x3c08a1a6	0.008339321
33	0x3cb7ed5f	0.022452055
34	0xbcf8994a	-0.030346531
35	0xbcaea90b	-0.02132084
36	0xbabc8901	-0.0014384092
37	0x3cbcc499	0.023042964
38	0x3d5a94a9	0.05336443
39	0x3baa5cb8	0.005199041
40	0xbb877ce1	-0.00413476
41	0xbd88c121	-0.066774614
42	0xbcc0f5f9	-0.023554789
43	0xbb852c52	-0.0040641213
44	0xbd2e2bc9	-0.042522226
45	0xbca9530c	-0.020669483
46	0x3c75aa29	0.014994183
47	0x3d25a9a6	0.040444992
48	0x3d8748b3	0.06605663
49	0x3c31c17d	0.010849354
50	0x3c1d1f8e	0.009590043
51	0xbc9dadb0	-0.01924786
52	0xbb94f3b9	-0.0045456556
53	0xbc17202f	-0.009223982
54	0x3c2d6ca0	0.01058498
55	0x3d18fcbb	0.037350398
56	0x3c3a45d5	0.011369188
57	0x3bc9c86a	0.0061579244
58	0xbd1d8f9c	-0.038467035
59	0xbcadc2ed	-0.021211112
60	0x3ce8d8be	0.028423663
61	0x3d22b208	0.039720565
62	0x3ca42f55	0.0200421
63	0x3ca9fe99	0.020751284
64	0x3c812580	0.015764952
65	0x3caafcb7	0.020872457
66	0xbcbda287	-0.023148788
67	0x3c86731c	0.01641231
68	0x3cf3f2d7	0.029778881
69	0xbce90fe6	-0.028449964
70	0x3d514343	0.051089536
71	0x3c57bbdf	0.013167351
72	0xbc6b5f07	-0.014365918
73	0x3d691ccb	0.056912225
74	0xbd7e1086	-0.062027477
75	0x3c8c597d	0.017132515
76	0x3d50c60b	0.05097012
77	0xbc8d3bc9	-0.017240422
78	0xbd4a7fac	-0.049438164
79	0xbd39d1a3	-0.04536594
80	0x3c35ddb8	0.011100225
81	0xbbec44ad	-0.007210335
82	0xbd0646bc	-0.0327823
83	0xbca654c2	-0.020304088
84	0xbc986cf1	-0.018606635
85	0xbd313c1b	-0.04327021
86	0x3c957946	0.018246304
87	0xbcfbae92	-0.03072289
88	0xbc9bd777	-0.01902364
89	0xbbf1b9cb	-0.0073768846
90	0x3d55fcb0	0.052242935
91	0x3c69504b	0.014240335
92	0x3bd7cdc6	0.0065858094
93	0x3cc4b1ba	0.024010528
94	0x3aac9e1e	0.0013169681
95	0x3c9eee77	0.019400818

layers.0.1.hidden.bias f4 [64]
0	0xbe049496	-0.12947306
1	0x3d702e49	0.05863789
2	0xbd2364b9	-0.03989098
3	0xbc534dc5	-0.01289696
4	0x3d8052fc	0.06265828
5	0xbdc4f538	-0.09617084
6	0x3d336ab8	0.043802947
7	0xbd542426	-0.051792286
8	0x3d5b8bf8	0.05360028
9	0xbbf0d131	-0.0073491563
10	0x3db5c683	0.08875754
11	0xbdb4e432	-0.08832587
12	0x3db2f420	0.087379694
13	0x3bc315ad	0.0059535117
14	0xbd180f1c	-0.037123784
15	0xbe0ad41a	-0.13557473
16	0x3d9686be	0.07349919
17	0xbdec52fa	-0.11539264
18	0xbcf046c8	-0.029330626
19	0xbd99b7c3	-0.07505753
20	0xbda36e57	-0.0798003
21	0x3d298e8c	0.04139571
22	0xbdfb454c	-0.12269077
23	0x3b8dde6e	0.004329494
24	0xbc467690	-0.012113228
25	0x3ba94922	0.005166189
26	0x3d8828b1	0.06648386
27	0xbd8a26bb	-0.067456685
28	0xbdb030b7	-0.086030416
29	0xbc5cd03c	-0.013477381
30	0x3cf79fd0	0.030227572
31	0xbdb7cf98	-0.08975142
32	0x3cb494b0	0.022043556
33	0x3d5a3363	0.053271662
34	0x3cba13d3	0.022714531
35	0xbd57a7bf	-0.05265021
36	0xbd284a19	-0.04108629
37	0x3c4707e5	0.012147878
38	0xbde674cf	-0.11252748
39	0xbaf9b0d7	-0.0019049895
40	0xbca4da88	-0.020123735
41	0xbdd1fbc7	-0.10253101
42	0xbc453d17	-0.012038491
43	0xbdd231db	-0.102634154
44	0x3d88f423	0.066871904
45	0xbcf3cb8b	-0.029760143
46	0xbdbb0428	-0.09131652
47	0x3da7ca87	0.08192926
48	0xbdd569e3	-0.10420587
49	0x3d6f6c4c	0.05845289
50	0xbc0c283d	-0.008554515
51	0x3d917893	0.07103076
52	0xbda1612b	-0.078798614
53	0x3db92fcb	0.09042319
54	0xbc59d4eb	-0.0132953925
55	0x3de5d4ec	0.11222252
56	0xbd16db9d	-0.036830533
57	0xbd394efe	-0.04524135
58	0xbcd1ac03	-0.025594717
59	0xbd82404a	-0.063599184
60	0x3d2b6c71	0.041851465
61	0x3dc6e55c	0.097117156
62	0x3df1815f	0.11792254
63	0xbda69f28	-0.081358254

layers.0.1.output.bias f4 [96]
0	0xbe240ac5	-0.16019733
1	0xbd755de8	-0.05990401
2	0x3e424fad	0.18975706
3	0xbe2b504b	-0.16729848
4	0xbdc4e686	-0.09614281
5	0xbcd1f68a	-0.025630254
6	0x3dee0b0d	0.116232015
7	0x3e024a6c	0.12723702
8	0xba43a9a8	-0.00074639404
9	0x3c7924a5	0.015206491
10	0xbe23161a	-0.159264
11	0xbc16b38a	-0.009198079
12	0x3df5291e	0.11970733
13	0x3e0da2ab	0.13831584
14	0x3da5ebcf	0.081016175
15	0x3d51fa14	0.051263884
16	0xbc79a5e1	-0.0152373025
17	0xbd0f9b8b	-0.035060447
18	0xbd96299a	-0.073321536
19	0xbe14acd8	-0.1451906
20	0xbd4f0422	-0.05054105
21	0xbdd50670	-0.104016185
22	0x3d8100ae	0.06298958
23	0x3df2648e	0.118355855
24	0x3d7d1f80	0.06179762
25	0xbd1c2017	-0.03811654
26	0xbce5ad02	-0.028036598
27	0x3e1eada6	0.15495929
28	0x3dc7f8a0	0.09764218
29	0x3ca2d954	0.01987902
30	0x3c0c4030	0.008560225
31	0xbe0a5199	-0.1350769
32	0x3e010236	0.125985
33	0xbcb60bd8	-0.022222444
34	0xbd9d5277	-0.076817445
35	0x3e26d93a	0.16293803
36	0x3dcdb214	0.10043731
37	0xbd7f9985	-0.062402267
38	0x3dc0581d	0.09391806
39	0x3e164418	0.14674413
40	0x3db040af	0.086060874
41	0x3d989a68	0.07451326
42	0x3dd9d60e	0.10636531
43	0xbd105522	-0.03523744
44	0x3c8ee964	0.017445274
45	0x3debc7d6	0.11512725
46	0xbd4d29e8	-0.050088793
47	0xbc8eeeb6	-0.01744781
48	0xbe38ce3c	-0.18047422
49	0x3d55acd2	0.052166767
50	0x3ced2ec3	0.028952962
51	0x3de86d6f	0.11348998
52	0xbe3df12f	-0.18549035
53	0xbdfafdaf	-0.122554176
54	0x3decd91b	0.11564847
55	0x3d8e6353	0.06952538
56	0x3c1dc2a9	0.00962893
57	0xbc98bd27	-0.018644882
58	0xbdd24821	-0.10267664
59	0x3d82332b	0.06357416
60	0x3c66ae01	0.014079572
61	0x3d4015a2	0.04689563
62	0xbe3f56c6	-0.18685445
63	0x3d232428	0.039829403
64	0xbe0ee173	-0.1395319
65	0x3d334251	0.043764416
66	0x3d75b588	0.059987575
67	0xbc7fce0d	-0.015613091
68	0x3dbd3915	0.09239403
69	0xbb8d05f7	-0.0043036896
70	0xbd6bcb27	-0.057566788
71	0x3b499138	0.0030756723
72	0x3de219b9	0.110400625
73	0x3d9b54a9	0.07584507
74	0x3e065c96	0.13121256
75	0x3cbbb078	0.022911295
76	0xbb6ae5c9	-0.003584253
77	0xbde40061	-0.11132885
78	0xbe0f3fb9	-0.13989152
79	0xbe4f043b	-0.20216458
80	0xbd55fccf	-0.05224305
81	0xbe0d468d	-0.13796444
82	0xbdd398de	-0.103318915
83	0x3d9b2b52	0.07576622
84	0xbe050d0c	-0.12993258
85	0xbe021f20	-0.12707186
86	0xbe22d9a9	-0.15903343
87	0x3c3628fa	0.011118168
88	0x3d9edeac	0.07757315
89	0x3d9dcc9b	0.07705041
90	0x3daa6756	0.08320491
91	0xbdf755e4	-0.12076929
92	0x3e3e1742	0.1856356
93	0x3cc31a0e	0.023816135
94	0x3d8a28b2	0.06746043
95	0xbccb981f	-0.02485281

layers.0.1.gate.bias f4 [64]
0	0xbd3dbae5	-0.046320815
1	0xbd9514a2	-0.07279326
2	0x3c167416	0.0091829505
3	0x3df54637	0.11976283
4	0x3bbddf42	0.0057944367
5	0xbb03bf41	-0.002010301
6	0xbd5921b7	-0.05301067
7	0x3a0c4b6d	0.00053518155
8	0x3dcfc5ec	0.101451725
9	0x3d659946	0.056054376
10	0xbb8d1403	-0.004305364
11	0xbd844c3e	-0.064598545
12	0x3c1884c9	0.009309002
13	0x3d27ffa7	0.041015293
14	0xbd609a99	-0.054834936
15	0xbd4e61ce	-0.050386243
16	0x3dbd28e8	0.09236318
17	0xbdfd18aa	-0.1235822
18	0xbd6fb02f	-0.05851763
19	0x3ce5e526	0.028063368
20	0xbce32e2d	-0.02773198
21	0xbdbd7d43	-0.092524074
22	0x3dd2f593	0.10300746
23	0xbc6ccd3a	-0.014453227
24	0x3dbc25c6	0.09186892
25	0xbc4ac16a	-0.012375215
26	0xbc742264	-0.0149007775
27	0xbd869fd0	-0.065734506
28	0x3dea222f	0.11432301
29	0x3d878a76	0.06618206
30	0x3d176a8a	0.036966838
31	0x3daf353b	0.08555075
32	0x3d93ade1	0.07210899
33	0x3c5dbcdf	0.0135338
34	0xbaf557a9	-0.0018718141
35	0x3e233a40	0.1594019
36	0xbd739b56	-0.05947431
37	0xba47b997	-0.00076189026
38	0x3d8df710	0.06931889
39	0xbd2ceb70	-0.04221672
40	0x3ca90fd7	0.020637436
41	0x3c5e93b9	0.0135850245
42	0x3d45ec96	0.04832133
43	0xbda1d1af	-0.07901322
44	0xbde39cac	-0.11113867
45	0xbdf38a76	-0.11891644
46	0xbd399995	-0.045312483
47	0xbd2655c9	-0.040609155
48	0xbe251f1e	-0.16125152
49	0xbd818d1f	-0.06325745
50	0x3cac37b5	0.021022657
51	0xbd08c5af	-0.03339165
52	0x3d03e634	0.03220196
53	0xbdb48361	-0.08814121
54	0x3cd744f6	0.026278
55	0xb9e1fc5d	-0.0004310337
56	0xbd6485f9	-0.05579183
57	0x3da1f269	0.07907564
58	0xbb71dffe	-0.0036907191
59	0xbd1ee943	-0.038796674
60	0x3dddaf03	0.108243965
61	0x3d564b36	0.05231782
62	0x3c26ba92	0.010176318
63	0x3d8c3c96	0.06847493

layers.1.0.weight f4 [96]
0	0x3f62b294	0.8855374
1	0x3f692141	0.91066366
2	0x3f719522	0.94368184
3	0x3f6a4026	0.9150413
4	0x3f689594	0.9085324
5	0x3f4262f7	0.7593226
6	0x3f69a0ff	0.91261286
7	0x3f5bbdea	0.8583666
8	0x3f36b6f4	0.71372914
9	0x3f65f255	0.89822894
10	0x3f735daf	0.95064825
11	0x3f601753	0.8753559
12	0x3f4adeb1	0.7924605
13	0x3f7786b1	0.966899
14	0x3f636fae	0.88842285
15	0x3f6481fa	0.8926083
16	0x3f675c0a	0.90374815
17	0x3f4df1fb	0.8044736
18	0x3f6b000a	0.91796935
19	0x3f7246b8	0.9463916
20	0x3f509781	0.81481177
21	0x3f602ebe	0.8757132
22	0x3f62445e	0.8838557
23	0x3f518020	0.8183613
24	0x3f4bc837	0.7960238
25	0x3f44cb56	0.76872766
26	0x3f4db2fc	0.80351233
27	0x3f57db80	0.84319305
28	0x3f5bd2bf	0.8586845
29	0x3f401c29	0.7504297
30	0x3f537cf7	0.82612556
31	0x3f464356	0.77446496
32	0x3f7478db	0.9549691
33	0x3f5b9f22	0.8578969
34	0x3f516c09	0.81805474
35	0x3f77bbc3	0.96770877
36	0x3f6960a2	0.91163075
37	0x3f532b84	0.82488275
38	0x3f5b733a	0.85722697
39	0x3f71e6c4	0.94492745
40	0x3f503558	0.81331396
41	0x3f5ef816	0.870973
42	0x3f5d5c1b	0.86468667
43	0x3f69061f	0.91024965
44	0x3f67cbe9	0.9054552
45	0x3f56f0f4	0.83961415
46	0x3f5aac5d	0.85419255
47	0x3f56a2f1	0.8384238
48	0x3f7b9a88	0.9828267
49	0x3f4db46e	0.8035344
50	0x3f6a7ced	0.9159687
51	0x3f3f42dd	0.747114
52	0x3f6daadc	0.92838836
53	0x3f67a8d5	0.9049199
54	0x3f63e06b	0.8901431
55	0x3f6c495b	0.9229943
56	0x3f623d96	0.8837522
57	0x3f6c61a8	0.9233651
58	0x3f4e0ad1	0.80485255
59	0x3f54d70c	0.83140635
60	0x3f612e56	0.8796133
61	0x3f612abd	0.8795584
62	0x3f592878	0.84827375
63	0x3f6a714f	0.91579145
64	0x3f6b1f5c	0.91844726
65	0x3f5d8a24	0.8653891
66	0x3f604b2e	0.87614715
67	0x3f483009	0.78198296
68	0x3f4d1e8c	0.80124736
69	0x3f5b1df5	0.85592586
70	0x3f6e7779	0.9315105
71	0x3f4a51ff	0.79031366
72	0x3f524598	0.8213744
73	0x3f3f3c57	0.74701446
74	0x3f62b3cc	0.885556
75	0x3f630ed3	0.88694495
76	0x3f57315b	0.84059685
77	0x3f7047e2	0.93859684
78	0x3f6819fe	0.9066466
79	0x3f7d6874	0.9898751
80	0x3f6ce772	0.9254066
81	0x3f6d1fb2	0.9262649
82	0x3f537ca8	0.82612085
83	0x3f5a3711	0.85240275
84	0x3f648d13	0.8927776
85	0x3f462f95	0.77416354
86	0x3f64c89f	0.89368623
87	0x3f68c1bb	0.9092061
88	0x3f7a3456	0.9773611
89	0x3f4b324f	0.7937364
90	0x3f5c372d	0.8602169
91	0x3f75be10	0.9599314
92	0x3f77abff	0.9674682
93	0x3f2d6f5b	0.6774804
94	0x3f6010b9	0.87525517
95	0x3f5650cb	0.8371703

layers.1.0.bias f4 [96]
0	0x3c7afda0	0.015319258
1	0x3d1570e1	0.036484603
2	0x3ce56d64	0.028006263
3	0xbce686ab	-0.028140387
4	0xbb3606d6	-0.002777507
5	0x3bcacacd	0.0061887265
6	0x3cbf6c6a	0.023367126
7	0xbb948bf5	-0.0045332857
8	0x3c9701d3	0.018433487
9	0x3bd9af57	0.0066432166
10	0xbbe13209	-0.0068724197
11	0xbbff2b34	-0.0077871326
12	0x3cf8b265	0.030358503
13	0x3d01752f	0.031605896
14	0xbc090ee3	-0.008365366
15	0xbc55f737	-0.013059429
16	0x3b613979	0.0034366532
17	0x3ca0211d	0.01954704
18	0xbd0242aa	-0.031801857
19	0xbcc77526	-0.024347853
20	0xbc713d9d	-0.014724162
21	0x3bb173ec	0.0054154303
22	0x3ce3012c	0.02771052
23	0x3ce43bfe	0.027860638
24	0x3be4b65c	0.0069797467
25	0x3c40d902	0.011770489
26	0x3cbfeefe	0.02342939
27	0xbc8473aa	-0.016168434
28	0x3d06e644	0.032934442
29	0x3c29a762	0.010354849
30	0xbc67fb5b	-0.014159049
31	0x3c03b94d	0.008039785
32	0x3d351787	0.04421189
33	0xbcc632dc	-0.024194174
34	0x3c0d506a	0.008625129
35	0x3cffcfce	0.031227019
36	0x3ca27688	0.01983191
37	0xbb078d9a	-0.0020683766
38	0xbc231c20	-0.009955436
39	0x3cf116a8	0.029429749
40	0x3c8de376	0.017320376
41	0xba76580e	-0.00093972764
42	0xbcda5cf8	-0.02665566
43	0x3c208018	0.009796165
44	0xbc91ea21	-0.017811837
45	0xbbefa98c	-0.0073139127
46	0x3ca900d5	0.02063028
47	0xbbf4cccb	-0.0074707023
48	0xbcdaf164	-0.026726432
49	0x3aea0c16	0.0017856385
50	0xbb19bab7	-0.0023457238
51	0x3cd102fd	0.02551412
52	0xbcabe336	-0.020982366
53	0xb9668488	-0.00021983881
54	0x3d083c97	0.033260908
55	0x3d260b4a	0.04053811
56	0x3c954d57	0.018225355
57	0x3b103cdc	0.0022008931
58	0xbd02d894	-0.031944826
59	0xbbe9cd17	-0.0071350443
60	0xbc59ac33	-0.013285684
61	0x3d074c6a	0.03303186
62	0x3b8b17c0	0.0042447746
63	0x3c913afa	0.017728318
64	0xbcad6c38	-0.021169767
65	0x3cae75e5	0.02129645
66	0xbc9de695	-0.01927499
67	0x3d204cf4	0.03913589
68	0x3c36c49d	0.011155275
69	0x3cb017d6	0.02149574
70	0xbc345751	-0.011007146
71	0xbc952977	-0.018208249
72	0xbc6bf039	-0.014400535
73	0x3d13c871	0.036079828
74	0x3cd1255d	0.025530512
75	0x3c2a66d3	0.010400492
76	0xbad93a24	-0.0016573113
77	0xbc33f27c	-0.010983106
78	0xbc843af1	-0.016141387
79	0xbce56f43	-0.028007155
80	0x3cc25d76	0.023726206
81	0xbd0ffe92	-0.035154887
82	0x3b0726fb	0.00206226
83	0x39e9fe5f	0.00044630744
84	0x3af06d46	0.0018343113
85	0x3a8cf8c6	0.0010755293
86	0xbc37b03f	-0.011211454
87	0xbc6a63c2	-0.014306011
88	0x3d2bd2ed	0.0419492
89	0x3b936973	0.0044986545
90	0x39dd02c9	0.0004215448
91	0xbc41437e	-0.011795877
92	0x3d21d645	0.039510984
93	0xbb099413	-0.00209928
94	0x3ca7284c	0.020404957
95	0x3bdd5335	0.006754304

layers.1.1.hidden.bias f4 [64]
0	0x3d79094d	0.060799886
1	0xbbdbb3bb	-0.006704775
2	0xbd95b9de	-0.07310842
3	0x3c194af5	0.00935625
4	0x39260c4a	0.00015835572
5	0xbcb1067e	-0.021609541
6	0xbd06583d	-0.032798994
7	0x3d2bac56	0.0419124
8	0xbd283446	-0.041065477
9	0xbe0f724e	-0.14008448
10	0xbd0ae319	-0.033907983
11	0xbd0d2db3	-0.03446741
12	0x3c0669b3	0.008203912
13	0x3cd0a123	0.025467461
14	0x3cc59d00	0.024122715
15	0xbda5920f	-0.08084499
16	0xbd920c39	-0.071312375
17	0xbd155461	-0.036457423
18	0x3b9e5459	0.0048318324
19	0xbd0ee878	-0.03488967
20	0x3dbd0075	0.09228603
21	0xbd631dea	-0.05544845
22	0xbd2d85e3	-0.042364012
23	0xbcd15d18	-0.025557086
24	0xbddfd6aa	-0.10929616
25	0xbc74da43	-0.014944616
26	0xbbb55542	-0.005533845
27	0x3dc1757a	0.09446235
28	0x3d1084c9	0.035282884
29	0xbd185423	-0.037189614
30	0x3d900ae6	0.07033329
31	0xbd85d070	-0.06533897
32	0xbd3a5b11	-0.045497004
33	0x3d6b8ba7	0.05750623
34	0xbd83c15f	-0.06433367
35	0xbdc8a2d0	-0.09796679
36	0x3d85aa36	0.06526606
37	0xbd9ae317	-0.07562845
38	0xbdc95df0	-0.0983237
39	0xbe09265c	-0.13393539
40	0xbd1f6cde	-0.038922183
41	0xbc7fa2aa	-0.015602747
42	0xbd2f3ea8	-0.042784363
43	0xbd8a41b2	-0.06750812
44	0x3d39b7a1	0.045341138
45	0xbd16f423	-0.03685392
46	0x3bec6c6b	0.007215073
47	0xbd39ce35	-0.04536267
48	0x3971cbc6	0.00023059463
49	0xbd36db26	-0.04464259
50	0x3d7470e8	0.05967799
51	0x3d91897a	0.071063
52	0xbc5c2543	-0.013436618
53	0xbb6c8092	-0.0036087376
54	0xbd593626	-0.053030156
55	0x3d48b554	0.049001053
56	0x3c282453	0.010262567
57	0x3da99a71	0.082814105
58	0x3d8595f7	0.06522744
59	0x3d5a737e	0.0533328
60	0xbd916451	-0.07099212
61	0xbd892775	-0.06696979
62	0x3d904f51	0.070463784
63	0xbd6d41a9	-0.057923947

layers.1.1.output.bias f4 [96]
0	0xbcdafe10	-0.026732475
1	0x3da836cd	0.082135774
2	0x3c6269c4	0.013819162
3	0xbd5f0d74	-0.05445619
4	0x3d984a47	0.07436042
5	0xbd51dee0	-0.05123794
6	0x3dd8e18c	0.10589895
7	0xbdac6828	-0.08418304
8	0xbd371b0c	-0.04470353
9	0x3da79bcb	0.08184012
10	0x3dc4af44	0.09603742
11	0xbde04b32	-0.10951842
12	0xbcb211d5	-0.021737019
13	0xbdba5f70	-0.091002345
14	0x3d495bb5	0.049159724
15	0xbd7bd81d	-0.0614854
16	0x3d310564	0.04321803
17	0x3d835e9c	0.0641453
18	0x3d4b1808	0.049583465
19	0xbd96c247	-0.07361274
20	0x3d86c646	0.065807864
21	0x3dc5bb51	0.096548684
22	0xbde8c0de	-0.113649115
23	0x3ccb55fa	0.02482127
24	0xbda3ec7a	-0.08004089
25	0x3e0527e1	0.13003494
26	0xbd9bbee8	-0.07604772
27	0x3df3ad45	0.11898283
28	0x3d19bac9	0.037531648
29	0x3de1131e	0.109899744
30	0xbd62c1b4	-0.05536051
31	0xbccfcadf	-0.025365291
32	0x3c842d74	0.016134955
33	0xbaae271f	-0.0013286805
34	0x3d4ac5c9	0.04950503
35	0x3b36db5e	0.002790175
36	0x3dce6a77	0.100789
37	0xbd87b00a	-0.06625374
38	0x3d6a59e6	0.05721464
39	0xbdbf5188	-0.09341723
40	0x3dd127aa	0.102126434
41	0x3c8c090e	0.017094161
42	0x3c0433a1	0.00806895
43	0x3d9984ef	0.07496058
44	0x3dda1d9f	0.10650181
45	0x3d510ae4	0.051035777
46	0xbdf4b7a4	-0.11949089
47	0x3e12884e	0.14309809
48	0xbd940526	-0.072275445
49	0xbcf7f1bb	-0.030266633
50	0xbdb00bb5	-0.08595983
51	0xbdbefccb	-0.0932556
52	0x3cb719fb	0.022351256
53	0xbded5f93	-0.11590495
54	0x3b112a56	0.0022150478
55	0x3d97dfb7	0.07415717
56	0x3dfd29ac	0.12361464
57	0xbd058a31	-0.032602493
58	0x3dd949e2	0.10609795
59	0xbdaecb60	-0.085348845
60	0xbe083929	-0.13303055
61	0xbdabd42e	-0.083900794
62	0xbc974b3c	-0.018468492
63	0xbd5d1ad3	-0.05398066
64	0x3ccb10e1	0.024788322
65	0x3e117323	0.14204077
66	0x3de42765	0.111403264
67	0xbc27ec66	-0.010249233
68	0x3cf9f77f	0.030513523
69	0x3d91f9c1	0.07127715
70	0x3d7bd60f	0.06148344
71	0xbd65d43a	-0.0561106
72	0x3d174e96	0.03694018
73	0x3de3dd9f	0.11126255
74	0x3df6ed4a	0.12056978
75	0xbd471d4d	-0.048611928
76	0xbdbae616	-0.09125917
77	0xbdf29ba2	-0.11846091
78	0xbdfd266a	-0.123608425
79	0xbd4be336	-0.049777232
80	0x3cbc7280	0.023003817
81	0x3d38358a	0.044972934
82	0x3e083ba0	0.13303995
83	0x3dbcc61c	0.09217474
84	0x3c40425b	0.01173457
85	0x3dbacbbd	0.09120891
86	0xbdf9ea0e	-0.122028455
87	0x3ced62d6	0.028977793
88	0xbd6c1814	-0.05764015
89	0x3e096209	0.13416304
90	0x3cf6eacc	0.030141257
91	0x39d57197	0.00040711157
92	0xbe20b102	-0.15692523
93	0x3a7ecb92	0.00097196654
94	0x3d8da7e7	0.069167905
95	0xbc620079	-0.013794058

layers.1.1.gate.bias f4 [64]
0	0x3ca7c141	0.020477893
1	0x3cc8154f	0.024424223
2	0x3ce1d52e	0.027567472
3	0xbb11bae9	-0.0022236651
4	0x3d91ea88	0.071248114
5	0x3d25abcc	0.04044704
6	0x3b0d28d3	0.0021539226
7	0xbd736fac	-0.05943267
8	0xbd8eb859	-0.06968755
9	0x3b6f43fa	0.0036509023
10	0x3ce8720f	0.0283747
11	0xbaa0d7cc	-0.0012271344
12	0xbd0cc3dd	-0.034366477
13	0xbdcd767d	-0.100323655
14	0xbc9065c0	-0.017626643
15	0xbdf1eaad	-0.11812339
16	0x3d6bbf57	0.057555523
17	0x3dcd3526	0.10019903
18	0xbd04f739	-0.032462332
19	0x3b85a259	0.0040781912
20	0xbd5f2c3b	-0.05448554
21	0xbdf85553	-0.12125649
22	0x3d5e5c84	0.05428745
23	0x3d88bcdc	0.06676647
24	0xbd792cf2	-0.06083388
25	0xbd0a41ca	-0.033754148
26	0xbd296230	-0.041353405
27	0x3cbd8907	0.023136629
28	0xbc512b60	-0.012766689
29	0xbd2f378b	-0.04277758
30	0xbd241dfe	-0.040067665
31	0xbcc35aba	-0.023846973
32	0xbe05836e	-0.13038418
33	0x3d22d10f	0.039750155
34	0xbd68e539	-0.05685923
35	0xbd0899a8	-0.033349663
36	0xbe00f160	-0.12592077
37	0x3cdf21a2	0.027237717
38	0xbd19ca56	-0.03754648
39	0x3c853f28	0.016265467
40	0x3d63c671	0.05560917
41	0xbdb6e133	-0.08929672
42	0x3d26b5e2	0.0407008
43	0x3d8efb92	0.06981577
44	0xbd95f1d5	-0.073215164
45	0x3d09cf3f	0.03364491
46	0x3b1e3d0b	0.002414527
47	0x3d88c172	0.06677522
48	0x3d8152d4	0.06314626
49	0xbcab7345	-0.020928988
50	0xbd4bf18c	-0.049790904
51	0x3cf62a0d	0.030049348
52	0x3c4b3be7	0.012404419
53	0x3d288376	0.041140996
54	0x3d6fdbad	0.05855911
55	0xbde66606	-0.11249928
56	0x3d5317a9	0.051536236
57	0xbc95ce5c	-0.018286876
58	0x3d9fd36b	0.07803997
59	0x3c94674e	0.018115666
60	0xbba45037	-0.005014445
61	0xbda7367d	-0.0816469
62	0x3c0a88c7	0.008455462
63	0x3cc91c84	0.02454973

norm_out.weight f4 [96]
0	0x3f64307f	0.891365
1	0x3f77508c	0.9660728
2	0x3f5d6aa2	0.86490834
3	0x3f5faabe	0.87369907
4	0x3f6896f0	0.9085531
5	0x3f6b4ae7	0.91911167
6	0x3f68dd2b	0.90962476
7	0x3f660c82	0.89862835
8	0x3f664f98	0.899652
9	0x3f6aa63a	0.9165989
10	0x3f5ae634	0.8550751
11	0x3f670fac	0.9025829
12	0x3f76dfa6	0.9643501
13	0x3f66b67a	0.9012219
14	0x3f6e023c	0.9297216
15	0x3f6b8130	0.91994
16	0x3f6b2b02	0.918625
17	0x3f75c162	0.95998204
18	0x3f60f307	0.8787083
19	0x3f604f69	0.8762117
20	0x3f573cce	0.84077156
21	0x3f6c1f13	0.92234915
22	0x3f66e53d	0.9019354
23	0x3f49773c	0.7869756
24	0x3f5c6d9c	0.8610475
25	0x3f6b510f	0.9192056
26	0x3f68d93d	0.9095648
27	0x3f655b9f	0.8959293
28	0x3f6b40a6	0.9189552
29	0x3f4fd50b	0.8118445
30	0x3f62e1e5	0.8862594
31	0x3f588a77	0.8458628
32	0x3f61c47d	0.8819044
33	0x3f613873	0.8797676
34	0x3f55b525	0.8347953
35	0x3f58897f	0.845848
36	0x3f3e93fc	0.74444556
37	0x3f5bf259	0.8591667
38	0x3f65b06f	0.8972234
39	0x3f72bbe3	0.9481794
40	0x3f68b7da	0.90905535
41	0x3f616073	0.88037795
42	0x3f5cce98	0.8625274
43	0x3f687f26	0.90819013
44	0x3f7066fa	0.9390713
45	0x3f4a3308	0.7898412
46	0x3f5e7b49	0.8690687
47	0x3f6b04ab	0.91804
48	0x3f6d5f17	0.9272322
49	0x3f5e37dd	0.8680399
50	0x3f617f1b	0.8808457
51	0x3f63853a	0.8887516
52	0x3f57c92b	0.8429133
53	0x3f66221c	0.89895797
54	0x3f6a5b87	0.9154591
55	0x3f5df36a	0.86699545
56	0x3f69619b	0.9116456
57	0x3f6cf6b0	0.92563915
58	0x3f5953f8	0.8489375
59	0x3f5b508b	0.85669774
60	0x3f5acacb	0.8546569
61	0x3f62561b	0.88412637
62	0x3f6c63cf	0.92339796
63	0x3f1eba39	0.62002903
64	0x3f6aa864	0.91663194
65	0x3f67c51a	0.9053513
66	0x3f73f2ba	0.95292246
67	0x3f6301b1	0.88674456
68	0x3f690138	0.91017485
69	0x3f70c688	0.94052935
70	0x3f5583c5	0.8340419
71	0x3f6877ef	0.90808004
72	0x3f546b40	0.8297615
73	0x3f563198	0.83669424
74	0x3f6054b8	0.8762927
75	0x3f603613	0.8758251
76	0x3f5f11ac	0.8713634
77	0x3f5273c6	0.82207906
78	0x3f64c790	0.8936701
79	0x3f4e7896	0.8065275
80	0x3f587b5b	0.84563226
81	0x3f632082	0.8872148
82	0x3f652d19	0.8952194
83	0x3f5e4f12	0.868394
84	0x3f374483	0.71588916
85	0x3f61a679	0.8814464
86	0x3f52f8ef	0.8241109
87	0x3f64d628	0.89389277
88	0x3f52027f	0.8203506
89	0x3f6515ca	0.8948637
90	0x3f65647f	0.8960647
91	0x3f69fb07	0.9139866
92	0x3f643155	0.89137775
93	0x3f6c703a	0.92358744
94	0x3f576b5d	0.841482
95	0x3f6d6087	0.92725414

norm_out.bias f4 [96]
0	0x3aeed61a	0.0018221766
1	0x3d0c0bb6	0.034190856
2	0x3cd37f5d	0.025817567
3	0x3d0d61da	0.034517147
4	0x3c38a664	0.011270139
5	0x3c7eb1a2	0.015545281
6	0xbc0c3215	-0.008556862
7	0xbbdb7fa3	-0.006698565
8	0xbbdac808	-0.0066766776
9	0x3cc1d20b	0.023659727
10	0x3cf68e31	0.030097099
11	0x3c385475	0.011250605
12	0xbc939599	-0.01801567
13	0x3ce8011e	0.028320845
14	0x3d8ac8ef	0.06776606
15	0xbd07f46d	-0.033192087
16	0x3bfdb83a	0.007742909
17	0xbd5bbcb6	-0.053646766
18	0x3d3ea0f1	0.046540204
19	0xbd8bc119	-0.0682394
20	0xbdbd01d9	-0.09228868
21	0x3ad69c7c	0.001637354
22	0x3c4bb887	0.0124341315
23	0xbd367fa2	-0.044555314
24	0x3d382209	0.044954333
25	0xbb02924f	-0.0019923632
26	0xb8ec3ddd	-0.0001126488
27	0xbd001556	-0.031270348
28	0xbcd9b75f	-0.026576696
29	0x3da0e98c	0.078570455
30	0xbc95e182	-0.018296007
31	0x3d358e3c	0.0443251
32	0xbc1164fe	-0.008874176
33	0xbc9f3985	-0.019436607
34	0x3cd12e1a	0.025534678
35	0xbd3339a0	-0.043756127
36	0xbd144fc6	-0.03620889
37	0x3cdfcebe	0.027320262
38	0xbc69f792	-0.014280217
39	0xbba30c64	-0.0049758423
40	0x3d02ee1d	0.031965364
41	0x3d2cc0c3	0.04217602
42	0xbd468be3	-0.04847325
43	0xbad5e88a	-0.0016319912
44	0x39a01279	0.0003053134
45	0xbd9f9a86	-0.07793145
46	0x3c71d2fb	0.014759774
47	0x3d1e902f	0.038711723
48	0xbc83c93b	-0.016087165
49	0xbc96a5e2	-0.018389646
50	0x3ad1e9e3	0.0016015138
51	0x3cb87fc7	0.022521866
52	0xbd59ba8f	-0.05315643
53	0xbd9293a8	-0.071570694
54	0xbce03874	-0.027370669
55	0x3d0b3221	0.033983354
56	0xbbfeaca8	-0.007772047
57	0xbb853395	-0.004064987
58	0x3c1901d1	0.009338812
59	0x3d18ade2	0.037275203
60	0xbd08542a	-0.03328339
61	0xbc26fe86	-0.010192519
62	0x3c8f52aa	0.017495472
63	0xbbc15800	-0.005900383
64	0x3c768dcb	0.0150484545
65	0x3ba214d4	0.0049463306
66	0x3c1a0561	0.0094006965
67	0xbcc3d1c5	-0.023903737
68	0x3c88f491	0.01671818
69	0xbb101f04	-0.0021991143
70	0xbd3a3496	-0.045460306
71	0x3cc6955e	0.024241146
72	0xbd590998	-0.052987665
73	0xbac89c39	-0.0015305347
74	0x3c016e22	0.007899793
75	0x3d315c0b	0.04330067
76	0x3bc532a8	0.0060180016
77	0x3c939956	0.018017452
78	0xbd5e1b43	-0.054225218
79	0xbd0abc94	-0.03387125
80	0x3c79eff6	0.015254965
81	0xbd40a78f	-0.047034796
82	0x3c05fc0c	0.008177768
83	0x3c14b00b	0.009075175
84	0xbd635ceb	-0.055508535
85	0xbc24a60e	-0.010049356
86	0x3d235e75	0.039885003
87	0x3ceb757b	0.028742542
88	0xbc944200	-0.018097878
89	0x3d1ffdcd	0.039060403
90	0x3d11b4ba	0.035572745
91	0xbc29ddef	-0.0103678545
92	0xbaa48984	-0.001255319
93	0xba7131bf	-0.0009200833
94	0xbd0b5eb3	-0.03402586
95	0xbcd91b30	-0.026502222

mlp_out.hidden.bias f4 [64]
0	0xbd4ef475	-0.0505261
1	0xbd835375	-0.064124025
2	0x3cecb596	0.02889518
3	0xbcf87a86	-0.030331861
4	0x3ca11af0	0.019666165
5	0xbd4c55d2	-0.049886532
6	0x3db3c195	0.08777157
7	0xbc8e9c89	-0.017408626
8	0xbdf42a7b	-0.11922165
9	0xba892b80	-0.0010465235
10	0xbd1fa95a	-0.038979866
11	0x3d9c657c	0.07636544
12	0xbd9a27b0	-0.07527101
13	0x3c4400a3	0.011963042
14	0x3c11b774	0.008893836
15	0xbdd9bd43	-0.10631802
16	0x3d050ba2	0.032481797
17	0xbcefb04a	-0.029258866
18	0x3d6c2f06	0.057662033
19	0x3d5f86a1	0.05457175
20	0xbb2b41de	-0.002613179
21	0xbd467caf	-0.04845875
22	0x3dafdc4e	0.08586942
23	0xbcb324e9	-0.021868186
24	0x3de49a54	0.11162248
25	0xbd2dec7f	-0.04246187
26	0xbd535d6e	-0.051602773
27	0x3abcc931	0.0014403221
28	0xbdabd13e	-0.08389519
29	0xbc935a1a	-0.0179873
30	0xbd8d9d34	-0.0691475
31	0xbcc2b287	-0.02376677
32	0x3d8d4ae4	0.0689905
33	0x3c06b0b3	0.008220839
34	0x3d16e1fa	0.0368366
35	0xbd9a8f06	-0.07546811
36	0x3dc02cb2	0.09383525
37	0x3c12fe5d	0.008971778
38	0xbd444e6d	-0.047926355
39	0xbdd4b406	-0.10385899
40	0xbbc3277d	-0.005955635
41	0xbda0dc80	-0.07854557
42	0xbd85f64e	-0.065411195
43	0x3dc90084	0.098145515
44	0xbcd02b24	-0.025411196
45	0xbc8de2d5	-0.017320076
46	0x3d07f201	0.033189777
47	0xbd2c01c6	-0.04199388
48	0x3d0618b2	0.032738395
49	0xbd81b021	-0.06332422
50	0xbda6b09b	-0.081391536
51	0xbdc12706	-0.09431271
52	0x3ce31bda	0.027723242
53	0xbd720dcd	-0.059095193
54	0x3d81e083	0.0634165
55	0xbd9ef0a9	-0.07760746
56	0xbd3e74dd	-0.04649817
57	0xbd9c2725	-0.07624654
58	0x3af6cf67	0.0018830121
59	0x3c8e0adb	0.01733916
60	0x3d870124	0.065920144
61	0xbdc69664	-0.096966535
62	0x3c08dc11	0.008353249
63	0x3d8ef8ba	0.069810346

mlp_out.gate.bias f4 [64]
0	0x3d242a3c	0.04007934
1	0xbbe267f9	-0.006909367
2	0xbcc99c78	-0.024610743
3	0xbd2c91de	-0.042131297
4	0xbbe0e846	-0.0068636267
5	0x3bab5dd2	0.00522969
6	0x3d1104f6	0.03540512
7	0xbcd57c54	-0.02606026
8	0x3db36240	0.08758974
9	0x3d569a4e	0.05239325
10	0xbd0702d3	-0.032961678
11	0x3dce987e	0.10087679
12	0xbda57ccb	-0.08080443
13	0xbd4cd2dc	-0.05000578
14	0x3d7e49ab	0.062081974
15	0xbdb788f3	-0.08961668
16	0x3bc402a0	0.0059817582
17	0x3d9b231f	0.07575058
18	0x3d18484c	0.037178323
19	0x3c762f94	0.015025992
20	0xbcca2995	-0.024678031
21	0x3c28a1ca	0.01029248
22	0xbdacd70e	-0.08439456
23	0x3ca3fc48	0.020017758
24	0xbc948495	-0.018129626
25	0xbd85a282	-0.065251365
26	0x3d4fddf2	0.050748773
27	0xbd4304d1	-0.047612015
28	0xbd8fe783	-0.07026579
29	0xbd414fe3	-0.047195327
30	0x3d287c9a	0.041134454
31	0xbd557126	-0.05210986
32	0xbdaba747	-0.08381515
33	0xbc1d776c	-0.009610992
34	0x3d33ce70	0.043898046
35	0x3d980f5c	0.074248046
36	0x3c539b52	0.012915449
37	0xbd915c3f	-0.07097673
38	0xbd5cdcee	-0.053921632
39	0xbd9633c5	-0.07334093
40	0xbd65fd82	-0.056149967
41	0x3cfd8dde	0.030951437
42	0xbd8c1215	-0.068393864
43	0x3db5056d	0.088389255
44	0xbc386744	-0.011255089
45	0x3d4cb600	0.049978256
46	0xbd57a487	-0.05264714
47	0x3d9013f3	0.07035055
48	0x3d840e79	0.06448073
49	0x3d85e4c3	0.065377735
50	0xbd6f8389	-0.05847505
51	0xbbe57400	-0.0070023537
52	0xbd9b00e1	-0.07568527
53	0xbc22a9a5	-0.009928142
54	0xbd8a71e8	-0.06760007
55	0xbd959c1a	-0.07305165
56	0xbd91dce5	-0.071222104
57	0xbda190ab	-0.07888921
58	0xbcbee622	-0.023303095
59	0xba0be085	-0.0005335885
60	0xbd7a0e18	-0.061048597
61	0xbcf5df78	-0.030013785
62	0x3d235ad9	0.03988156
63	0xbd455605	-0.048177738
