models/mel-spectrogram_int8.onnx (onnx, 277060 bytes, 3 tensors)

0.stft.conv_real.weight_quantized u1 [257, 1, 512]
0	0x80	128
1	0x80	128
2	0x80	128
3	0x80	128
4	0x80	128
5	0x80	128
6	0x80	128
7	0x80	128
8	0x80	128
9	0x80	128
10	0x80	128
11	0x80	128
12	0x80	128
13	0x80	128
14	0x80	128
15	0x80	128
16	0x80	128
17	0x80	128
18	0x80	128
19	0x80	128
20	0x80	128
21	0x80	128
22	0x80	128
23	0x80	128
24	0x80	128
25	0x80	128
26	0x80	128
27	0x80	128
28	0x80	128
29	0x80	128
30	0x80	128
31	0x80	128
32	0x80	128
33	0x80	128
34	0x80	128
35	0x80	128
36	0x80	128
37	0x80	128
38	0x80	128
39	0x80	128
40	0x80	128
41	0x80	128
42	0x80	128
43	0x80	128
44	0x80	128
45	0x80	128
46	0x80	128
47	0x80	128
48	0x80	128
49	0x80	128
50	0x80	128
51	0x80	128
52	0x80	128
53	0x80	128
54	0x80	128
55	0x80	128
56	0x80	128
57	0x80	128
58	0x80	128
59	0x80	128
60	0x80	128
61	0x80	128
62	0x80	128
63	0x80	128
64	0x81	129
65	0x81	129
66	0x81	129
67	0x81	129
68	0x81	129
69	0x81	129
70	0x82	130
71	0x82	130
72	0x82	130
73	0x82	130
74	0x83	131
75	0x83	131
76	0x83	131
77	0x83	131
78	0x84	132
79	0x84	132
80	0x84	132
81	0x85	133
82	0x85	133
83	0x86	134
84	0x86	134
85	0x87	135
86	0x87	135
87	0x87	135
88	0x88	136
89	0x88	136
90	0x89	137
91	0x89	137
92	0x8a	138
93	0x8a	138
94	0x8b	139
95	0x8c	140
96	0x8c	140
97	0x8d	141
98	0x8d	141
99	0x8e	142
100	0x8f	143
101	0x8f	143
102	0x90	144
103	0x91	145
104	0x91	145
105	0x92	146
106	0x93	147
107	0x93	147
108	0x94	148
109	0x95	149
110	0x96	150
111	0x96	150
112	0x97	151
113	0x98	152
114	0x99	153
115	0x99	153
116	0x9a	154
117	0x9b	155
118	0x9c	156
119	0x9d	157
120	0x9e	158
121	0x9e	158
122	0x9f	159
123	0xa0	160
124	0xa1	161
125	0xa2	162
126	0xa3	163
127	0xa4	164
128	0xa5	165
129	0xa6	166
130	0xa6	166
131	0xa7	167
132	0xa8	168
133	0xa9	169
134	0xaa	170
135	0xab	171
136	0xac	172
137	0xad	173
138	0xae	174
139	0xaf	175
140	0xb0	176
141	0xb1	177
142	0xb2	178
143	0xb3	179
144	0xb4	180
145	0xb5	181
146	0xb6	182
147	0xb7	183
148	0xb8	184
149	0xb9	185
150	0xba	186
151	0xbb	187
152	0xbc	188
153	0xbd	189
154	0xbe	190
155	0xbf	191
156	0xc0	192
157	0xc1	193
158	0xc2	194
159	0xc3	195
160	0xc4	196
161	0xc5	197
162	0xc6	198
163	0xc7	199
164	0xc8	200
165	0xc9	201
166	0xca	202
167	0xcb	203
168	0xcc	204
169	0xcd	205
170	0xce	206
171	0xcf	207
172	0xd0	208
173	0xd1	209
174	0xd2	210
175	0xd2	210
176	0xd3	211
177	0xd4	212
178	0xd5	213
179	0xd6	214
180	0xd7	215
181	0xd8	216
182	0xd9	217
183	0xda	218
184	0xdb	219
185	0xdc	220
186	0xdd	221
187	0xde	222
188	0xde	222
189	0xdf	223
190	0xe0	224
191	0xe1	225
192	0xe2	226
193	0xe3	227
194	0xe4	228
195	0xe4	228
196	0xe5	229
197	0xe6	230
198	0xe7	231
199	0xe8	232
200	0xe8	232
201	0xe9	233
202	0xea	234
203	0xeb	235
204	0xeb	235
205	0xec	236
206	0xed	237
207	0xee	238
208	0xee	238
209	0xef	239
210	0xf0	240
211	0xf0	240
212	0xf1	241
213	0xf2	242
214	0xf2	242
215	0xf3	243
216	0xf3	243
217	0xf4	244
218	0xf4	244
219	0xf5	245
220	0xf6	246
221	0xf6	246
222	0xf7	247
223	0xf7	247
224	0xf8	248
225	0xf8	248
226	0xf9	249
227	0xf9	249
228	0xf9	249
229	0xfa	250
230	0xfa	250
231	0xfb	251
232	0xfb	251
233	0xfb	251
234	0xfc	252
235	0xfc	252
236	0xfc	252
237	0xfd	253
238	0xfd	253
239	0xfd	253
240	0xfd	253
241	0xfe	254
242	0xfe	254
243	0xfe	254
244	0xfe	254
245	0xff	255
246	0xff	255
247	0xff	255
248	0xff	255
249	0xff	255
250	0xff	255
251	0xff	255
252	0xff	255
253	0xff	255
254	0xff	255
255	0xff	255

0.stft.conv_imag.weight_quantized u1 [257, 1, 512]
0	0x80	128
1	0x80	128
2	0x80	128
3	0x80	128
4	0x80	128
5	0x80	128
6	0x80	128
7	0x80	128
8	0x80	128
9	0x80	128
10	0x80	128
11	0x80	128
12	0x80	128
13	0x80	128
14	0x80	128
15	0x80	128
16	0x80	128
17	0x80	128
18	0x80	128
19	0x80	128
20	0x80	128
21	0x80	128
22	0x80	128
23	0x80	128
24	0x80	128
25	0x80	128
26	0x80	128
27	0x80	128
28	0x80	128
29	0x80	128
30	0x80	128
31	0x80	128
32	0x80	128
33	0x80	128
34	0x80	128
35	0x80	128
36	0x80	128
37	0x80	128
38	0x80	128
39	0x80	128
40	0x80	128
41	0x80	128
42	0x80	128
43	0x80	128
44	0x80	128
45	0x80	128
46	0x80	128
47	0x80	128
48	0x80	128
49	0x80	128
50	0x80	128
51	0x80	128
52	0x80	128
53	0x80	128
54	0x80	128
55	0x80	128
56	0x80	128
57	0x80	128
58	0x80	128
59	0x80	128
60	0x80	128
61	0x80	128
62	0x80	128
63	0x80	128
64	0x80	128
65	0x80	128
66	0x80	128
67	0x80	128
68	0x80	128
69	0x80	128
70	0x80	128
71	0x80	128
72	0x80	128
73	0x80	128
74	0x80	128
75	0x80	128
76	0x80	128
77	0x80	128
78	0x80	128
79	0x80	128
80	0x80	128
81	0x80	128
82	0x80	128
83	0x80	128
84	0x80	128
85	0x80	128
86	0x80	128
87	0x80	128
88	0x80	128
89	0x80	128
90	0x80	128
91	0x80	128
92	0x80	128
93	0x80	128
94	0x80	128
95	0x80	128
96	0x80	128
97	0x80	128
98	0x80	128
99	0x80	128
100	0x80	128
101	0x80	128
102	0x80	128
103	0x80	128
104	0x80	128
105	0x80	128
106	0x80	128
107	0x80	128
108	0x80	128
109	0x80	128
110	0x80	128
111	0x80	128
112	0x80	128
113	0x80	128
114	0x80	128
115	0x80	128
116	0x80	128
117	0x80	128
118	0x80	128
119	0x80	128
120	0x80	128
121	0x80	128
122	0x80	128
123	0x80	128
124	0x80	128
125	0x80	128
126	0x80	128
127	0x80	128
128	0x80	128
129	0x80	128
130	0x80	128
131	0x80	128
132	0x80	128
133	0x80	128
134	0x80	128
135	0x80	128
136	0x80	128
137	0x80	128
138	0x80	128
139	0x80	128
140	0x80	128
141	0x80	128
142	0x80	128
143	0x80	128
144	0x80	128
145	0x80	128
146	0x80	128
147	0x80	128
148	0x80	128
149	0x80	128
150	0x80	128
151	0x80	128
152	0x80	128
153	0x80	128
154	0x80	128
155	0x80	128
156	0x80	128
157	0x80	128
158	0x80	128
159	0x80	128
160	0x80	128
161	0x80	128
162	0x80	128
163	0x80	128
164	0x80	128
165	0x80	128
166	0x80	128
167	0x80	128
168	0x80	128
169	0x80	128
170	0x80	128
171	0x80	128
172	0x80	128
173	0x80	128
174	0x80	128
175	0x80	128
176	0x80	128
177	0x80	128
178	0x80	128
179	0x80	128
180	0x80	128
181	0x80	128
182	0x80	128
183	0x80	128
184	0x80	128
185	0x80	128
186	0x80	128
187	0x80	128
188	0x80	128
189	0x80	128
190	0x80	128
191	0x80	128
192	0x80	128
193	0x80	128
194	0x80	128
195	0x80	128
196	0x80	128
197	0x80	128
198	0x80	128
199	0x80	128
200	0x80	128
201	0x80	128
202	0x80	128
203	0x80	128
204	0x80	128
205	0x80	128
206	0x80	128
207	0x80	128
208	0x80	128
209	0x80	128
210	0x80	128
211	0x80	128
212	0x80	128
213	0x80	128
214	0x80	128
215	0x80	128
216	0x80	128
217	0x80	128
218	0x80	128
219	0x80	128
220	0x80	128
221	0x80	128
222	0x80	128
223	0x80	128
224	0x80	128
225	0x80	128
226	0x80	128
227	0x80	128
228	0x80	128
229	0x80	128
230	0x80	128
231	0x80	128
232	0x80	128
233	0x80	128
234	0x80	128
235	0x80	128
236	0x80	128
237	0x80	128
238	0x80	128
239	0x80	128
240	0x80	128
241	0x80	128
242	0x80	128
243	0x80	128
244	0x80	128
245	0x80	128
246	0x80	128
247	0x80	128
248	0x80	128
249	0x80	128
250	0x80	128
251	0x80	128
252	0x80	128
253	0x80	128
254	0x80	128
255	0x80	128

1.melW_quantized u1 [257, 32]
0	0x00	0
1	0x00	0
2	0x00	0
3	0x00	0
4	0x00	0
5	0x00	0
6	0x00	0
7	0x00	0
8	0x00	0
9	0x00	0
10	0x00	0
11	0x00	0
12	0x00	0
13	0x00	0
14	0x00	0
15	0x00	0
16	0x00	0
17	0x00	0
18	0x00	0
19	0x00	0
20	0x00	0
21	0x00	0
22	0x00	0
23	0x00	0
24	0x00	0
25	0x00	0
26	0x00	0
27	0x00	0
28	0x00	0
29	0x00	0
30	0x00	0
31	0x00	0
32	0x00	0
33	0x00	0
34	0x00	0
35	0x00	0
36	0x00	0
37	0x00	0
38	0x00	0
39	0x00	0
40	0x00	0
41	0x00	0
42	0x00	0
43	0x00	0
44	0x00	0
45	0x00	0
46	0x00	0
47	0x00	0
48	0x00	0
49	0x00	0
50	0x00	0
51	0x00	0
52	0x00	0
53	0x00	0
54	0x00	0
55	0x00	0
56	0x00	0
57	0x00	0
58	0x00	0
59	0x00	0
60	0x00	0
61	0x00	0
62	0x00	0
63	0x00	0
64	0x0a	10
65	0x00	0
66	0x00	0
67	0x00	0
68	0x00	0
69	0x00	0
70	0x00	0
71	0x00	0
72	0x00	0
73	0x00	0
74	0x00	0
75	0x00	0
76	0x00	0
77	0x00	0
78	0x00	0
79	0x00	0
80	0x00	0
81	0x00	0
82	0x00	0
83	0x00	0
84	0x00	0
85	0x00	0
86	0x00	0
87	0x00	0
88	0x00	0
89	0x00	0
90	0x00	0
91	0x00	0
92	0x00	0
93	0x00	0
94	0x00	0
95	0x00	0
96	0x84	132
97	0x00	0
98	0x00	0
99	0x00	0
100	0x00	0
101	0x00	0
102	0x00	0
103	0x00	0
104	0x00	0
105	0x00	0
106	0x00	0
107	0x00	0
108	0x00	0
109	0x00	0
110	0x00	0
111	0x00	0
112	0x00	0
113	0x00	0
114	0x00	0
115	0x00	0
116	0x00	0
117	0x00	0
118	0x00	0
119	0x00	0
120	0x00	0
121	0x00	0
122	0x00	0
123	0x00	0
124	0x00	0
125	0x00	0
126	0x00	0
127	0x00	0
128	0xfe	254
129	0x00	0
130	0x00	0
131	0x00	0
132	0x00	0
133	0x00	0
134	0x00	0
135	0x00	0
136	0x00	0
137	0x00	0
138	0x00	0
139	0x00	0
140	0x00	0
141	0x00	0
142	0x00	0
143	0x00	0
144	0x00	0
145	0x00	0
146	0x00	0
147	0x00	0
148	0x00	0
149	0x00	0
150	0x00	0
151	0x00	0
152	0x00	0
153	0x00	0
154	0x00	0
155	0x00	0
156	0x00	0
157	0x00	0
158	0x00	0
159	0x00	0
160	0x99	153
161	0x70	112
162	0x00	0
163	0x00	0
164	0x00	0
165	0x00	0
166	0x00	0
167	0x00	0
168	0x00	0
169	0x00	0
170	0x00	0
171	0x00	0
172	0x00	0
173	0x00	0
174	0x00	0
175	0x00	0
176	0x00	0
177	0x00	0
178	0x00	0
179	0x00	0
180	0x00	0
181	0x00	0
182	0x00	0
183	0x00	0
184	0x00	0
185	0x00	0
186	0x00	0
187	0x00	0
188	0x00	0
189	0x00	0
190	0x00	0
191	0x00	0
192	0x1f	31
193	0xea	234
194	0x00	0
195	0x00	0
196	0x00	0
197	0x00	0
198	0x00	0
199	0x00	0
200	0x00	0
201	0x00	0
202	0x00	0
203	0x00	0
204	0x00	0
205	0x00	0
206	0x00	0
207	0x00	0
208	0x00	0
209	0x00	0
210	0x00	0
211	0x00	0
212	0x00	0
213	0x00	0
214	0x00	0
215	0x00	0
216	0x00	0
217	0x00	0
218	0x00	0
219	0x00	0
220	0x00	0
221	0x00	0
222	0x00	0
223	0x00	0
224	0x00	0
225	0xad	173
226	0x5b	91
227	0x00	0
228	0x00	0
229	0x00	0
230	0x00	0
231	0x00	0
232	0x00	0
233	0x00	0
234	0x00	0
235	0x00	0
236	0x00	0
237	0x00	0
238	0x00	0
239	0x00	0
240	0x00	0
241	0x00	0
242	0x00	0
243	0x00	0
244	0x00	0
245	0x00	0
246	0x00	0
247	0x00	0
248	0x00	0
249	0x00	0
250	0x00	0
251	0x00	0
252	0x00	0
253	0x00	0
254	0x00	0
255	0x00	0
