models/speech-embedding_int8.onnx (onnx, 383006 bytes, 39 tensors)

model/conv2d_9/Conv2D_bias_fused_bn f4 [72]
000000 14 58 8a 3e f7 4c 9c bf 94 e0 70 3f 53 01 d2 3f
       0.27020323 -1.2210988 0.9409268 1.6406654
000010 62 bc ab bf 00 39 99 3c 7d 9e 56 be f1 cc 11 bf
       -1.3416865 0.018703938 -0.20958896 -0.5695334
000020 99 75 c4 3d 6a 15 f2 bd d0 a1 3b bf bf 11 d3 bf
       0.095927425 -0.11820491 -0.7329378 -1.6489791
000030 00 98 55 3f c2 c3 29 3f a5 6b 6b 3f a8 9b 0c 40
       0.8343506 0.6631433 0.9196113 2.1970005
000040 fe 15 ab 3e 70 64 cd bf c5 13 b5 3f 57 86 bb 3e
       0.33415216 -1.6046276 1.4146658 0.3662593
000050 84 10 ec 3e 2e d8 1f bf 04 c1 32 bf 03 99 26 3f
       0.4610635 -0.6243924 -0.6982577 0.6507723
000060 16 d8 ad 3e 8c e9 b8 bf 60 3d 8e 3d a0 65 b8 3c
       0.33953923 -1.4446273 0.069453 0.022509396
000070 c1 4b b5 bf a9 b7 24 bf 84 b1 9f 3e c0 f4 1d 3c
       -1.4163743 -0.64342743 0.3119012 0.0096408725
000080 cf a7 72 bf b1 c7 3b bf b6 78 07 3f 87 9d fa be
       -0.94787306 -0.7335158 0.52918565 -0.4894831
000090 2a 96 ac be e0 5a 08 3e e6 bf 86 be 9a ef 63 3f
       -0.33708316 0.13315916 -0.26318282 0.8903748
0000a0 24 44 69 be b7 4f d5 be 75 65 fc 3e 86 0d 4d 3f
       -0.227799 -0.4166238 0.49296156 0.8009876
0000b0 e6 8b 08 be fa ea 29 3f f8 d7 20 3f ec 2b 15 3f
       -0.13334617 0.6637417 0.6282954 0.58270144
0000c0 83 ef be bd 59 22 a4 bf 60 9e 42 bd 20 10 74 bd
       -0.09323027 -1.2822982 -0.04751432 -0.05958569
0000d0 5a 2a a2 bf 3c 83 3f bf ee c3 c1 be 82 31 8e 3f
       -1.2669175 -0.7480962 -0.37844795 1.1108859
0000e0 d0 6a c4 3e cc 90 f6 bd a8 fe 42 bd 18 67 7c be
       0.3836274 -0.120393366 -0.04760614 -0.24648702
0000f0 e8 cb a3 bd f7 e1 89 be 02 21 0a 3f ce e5 29 3f
       -0.079978764 -0.2693021 0.53956616 0.6636628
000100 5f a3 04 3f e5 25 6e 3e dc ee 1d 3e b4 f1 11 be
       0.51811785 0.23256643 0.15423149 -0.14252359
000110 da 8a a0 3e da 37 12 3f 8e b8 b1 bf a3 45 a6 3f
       0.31355935 0.5711647 -1.3884447 1.2990001

model/conv2d_8/Conv2D_bias_fused_bn f4 [72]
000000 e0 44 d2 3e 36 65 1e 3f 84 0c af 3f 3d 81 8a 3e
       0.41068172 0.61873186 1.3675694 0.27051726
000010 4e b9 ae 3f f8 c6 e7 be 1a 55 a4 3e f6 18 62 3f
       1.36503 -0.4526899 0.32096177 0.8831934
000020 cd 07 b6 be 6a d7 6c 3f d7 49 2b 3e 19 df fb be
       -0.35552827 0.92516196 0.16727386 -0.49193648
000030 50 53 bc bf b8 ba bd bd ba 1a 56 bf f1 7e 90 3f
       -1.4712925 -0.092641294 -0.8363453 1.128874
000040 f8 89 b6 3f 4a 4d ea 3c 08 5b 7c 3e c2 60 00 3f
       1.4260855 0.028601307 0.246441 0.5014764
000050 1d 41 3c 3f 4f 3a 83 3e 36 46 01 3e f9 5f 3a bf
       0.73536855 0.25630423 0.1262444 -0.7280269
000060 9a ab 1d bf e0 65 00 3f 52 37 7b 3f c8 e0 0f 3f
       -0.6158997 0.5015545 0.9813129 0.56202364
000070 37 7a d3 be 5e 0d e1 3d 00 2c 5b ba 01 9a cf bf
       -0.4130418 0.10988878 -0.00083607435 -1.6218873
000080 cc 38 80 3e 34 cb 76 bf 00 59 19 3e 6e ad 83 be
       0.25043333 -0.96403813 0.14975357 -0.25718254
000090 a7 6b 9a bf f3 c5 41 bf 83 28 13 bf 82 2a 09 3f
       -1.2064103 -0.7569267 -0.5748369 0.53580487
0000a0 80 f1 f9 be d0 6a 0c 3d 0a e2 1b bf e2 6e d2 3e
       -0.48817062 0.03428155 -0.60891783 0.41100222
0000b0 ce 70 c5 be b8 45 80 3c 8d 0c ac 3e 4a 7b 94 bf
       -0.38562626 0.015658244 0.33603325 -1.1600125
0000c0 24 5a 95 bf 66 63 b7 be 64 43 96 bf 2c ad 30 bf
       -1.1668134 -0.35818022 -1.1739316 -0.6901424
0000d0 d8 4c 6d 3d 57 e6 9c be 75 46 81 bf 5c de c4 3d
       0.057934612 -0.30644485 -1.0099627 0.09612724
0000e0 a2 a6 a2 bf 0b 92 1c bf d8 e4 8b 3f fc 35 d7 bf
       -1.2707102 -0.61160344 1.0929213 -1.681335
0000f0 67 2b 8e bf 6a 63 95 bf cf 29 3c 3f c6 e7 95 3d
       -1.1106995 -1.1670964 0.73501295 0.07319598
000100 00 3d a5 3e 08 7f b8 bf be 6c 75 3e 6e 77 b5 bf
       0.32273102 -1.4413767 0.23967263 -1.4177072
000110 5a bb 1c bf 08 db b1 be ab d9 f7 be 60 6c f8 3d
       -0.61223376 -0.3473742 -0.48408255 0.12130046

model/conv2d_7/Conv2D_bias_fused_bn f4 [72]
000000 18 2e 03 bf bf 7e 1f c0 e7 c3 18 bf 1e 94 b9 3f
       -0.5124221 -2.492111 -0.59673923 1.4498327
000010 1a 2e db bf 2d 3a c3 3f e2 a9 0a be b2 23 aa 3e
       -1.7123444 1.5252129 -0.13541368 0.33230358
000020 16 91 2f 3f 4e df 95 bf 44 a3 07 3f e4 a9 c6 bf
       0.6858076 -1.1708772 0.529835 -1.5520597
000030 99 fe b1 3f c9 30 a3 3e 14 e6 e0 3e 0a 60 84 bf
       1.3905822 0.31873158 0.43925536 -1.0341809
000040 9a b7 8a 3e 5a d1 53 3e f9 61 a8 bf 24 36 d1 bf
       0.27093202 0.2068533 -1.3154899 -1.6344647
000050 2e 1e ab 3f 9d f0 b8 3f 97 3f 3c c0 f2 c8 3b bf
       1.3368585 1.4448429 -2.9413812 -0.73353493
000060 cb a5 93 bf ec ba 8f bf 66 d0 76 be 61 9a 43 3e
       -1.1534971 -1.1228919 -0.24102935 0.1910186
000070 4f b4 ca 3f 1f 4b a4 3f 62 7c 1b bf d4 ab f6 3f
       1.5836276 1.2835425 -0.6073667 1.9271188
000080 2f ac f5 be 5c 41 2d 3f c4 ec 53 3e 44 69 f0 be
       -0.47982928 0.67677855 0.20695788 -0.4695531
000090 64 d7 ba 3f af 07 ac 3f c9 dd 26 3f 88 24 f8 3e
       1.4596982 1.3439845 0.6518217 0.4846537
0000a0 d5 33 6e 3f 0f a3 72 3e af bc a7 bf b2 b5 9b 3f
       0.9304784 0.23695014 -1.3104457 1.2164824
0000b0 1f b9 a4 bf c6 8e 66 bf 50 3f d5 bf 09 f7 14 be
       -1.2868994 -0.90061605 -1.6659946 -0.14547361
0000c0 da 39 ec bd ae a6 ef 3f 54 19 ac bf 7a f5 c0 be
       -0.11534472 1.8722742 -1.344523 -0.37687284
0000d0 2e b7 88 3f 74 50 92 bf fe 75 5e 3e 64 7d 19 bf
       1.0680902 -1.1430802 0.21724698 -0.59956956
0000e0 95 b5 1a 3f 7c 93 d2 3f 82 0d b0 be cd 95 2a bf
       0.6043332 1.6451259 -0.34385306 -0.6663483
0000f0 d7 ee 07 3e 41 2b a2 bf d6 56 b1 3f bd 34 d1 3d
       0.13274704 -1.266945 1.3854625 0.10215137
000100 4b 2c b8 bf a2 34 3c 3f 80 6d 96 bd 30 41 03 3e
       -1.4388517 0.7351781 -0.07345104 0.12817836
000110 33 43 25 c0 b8 03 b1 bf 07 f0 11 bf 9f 23 db 3e
       -2.5822265 -1.382926 -0.5700688 0.42800614

model/conv2d_6/Conv2D_bias_fused_bn f4 [48]
000000 ea 9e 88 3f a8 65 1f 3d e9 a2 ba be eb 90 b4 3d
       1.0673497 0.038915306 -0.36452416 0.088167034
000010 26 12 8b bf 4c 0f 2b be 3e 2d b2 3f d4 20 97 bd
       -1.0864913 -0.16705054 1.3920057 -0.07379308
000020 00 2b 25 3f 82 00 b8 3e 92 37 80 be 75 fc 64 bf
       0.6451874 0.35937887 -0.25042397 -0.8944772
000030 40 60 5e be ad f6 16 bf ae 04 8b 3d 40 aa f2 3c
       -0.21716404 -0.5897015 0.06788002 0.029622197
000040 59 9c cf be 80 7d 8e bd f2 87 47 3f 9b aa aa 3f
       -0.4054897 -0.06957531 0.7794181 1.3333315
000050 70 ed a6 3d d0 33 8b 3e b8 db 9b 3f 90 c0 4d 3f
       0.08150756 0.27187967 1.2176428 0.8037195
000060 23 75 9e 3f 80 df 5d 3f e8 18 56 3f 7d 64 64 3e
       1.2379497 0.8666916 0.83631754 0.22303958
000070 54 42 30 3f 07 ca 9c 3f b0 58 18 bf 13 b0 f4 3d
       0.6885121 1.2249154 -0.59510326 0.11947646
000080 e1 e4 d7 3e da 01 96 3f 9c ed 93 3e f4 7f 80 3f
       0.42166808 1.1719315 0.2889222 1.0039048
000090 bc 5f 88 bf 7c ba c4 be f9 20 0b bf 1b 74 ed 3f
       -1.0654216 -0.38423526 -0.5434719 1.8551058
0000a0 39 c8 09 bf 60 51 79 bf ea 02 a6 3f 86 29 f8 3e
       -0.5382114 -0.97389793 1.2969639 0.4846918
0000b0 c3 4c 66 3f dc 08 cc bd f8 de 62 3f f1 65 81 3e
       0.8996088 -0.09962627 0.88621473 0.25273088

model/conv2d_5/Conv2D_bias_fused_bn f4 [48]
000000 f2 d0 12 3f 59 53 d3 be 23 e7 16 bf fb f5 af 3f
       0.57350075 -0.41274527 -0.58946437 1.3746942
000010 ea ef 8b be ee ba c4 3d 7a 12 fb be 74 5b a4 be
       -0.27331477 0.096059665 -0.49037534 -0.32101023
000020 8c 97 fd bd 2c ee a8 be 19 54 ad bf 48 2d 4f be
       -0.12382421 -0.3299421 -1.354129 -0.20232117
000030 5a 45 b6 3e e0 0e cb bc c5 ec dc 3e 2c e4 07 3e
       0.35599786 -0.024787366 0.4314939 0.13270634
000040 78 88 df 3f 63 26 98 3f 6e 4b 81 3e da 98 37 bf
       1.7463522 1.1886715 0.2525286 -0.7171761
000050 88 3b b0 bf d6 66 3c 3f b7 81 b4 bf c4 72 97 3d
       -1.3768167 0.73594415 -1.4102086 0.07394937
000060 d8 06 96 3e c8 50 bd 3e d5 e7 61 3f fc fc 5f 3e
       0.29302096 0.36975694 0.8824437 0.2187385
000070 9e 4c c6 3e 10 11 2f be f4 ba 18 3c a0 7a 53 3c
       0.3873033 -0.17096353 0.009321917 0.012907654
000080 32 52 8f be f1 a9 2f 3e 95 8e 4b be 11 e2 4e 3f
       -0.27992398 0.17154671 -0.1987861 0.808137
000090 56 44 d4 3e 83 30 52 bf e4 a5 1b bf 35 ae b1 be
       0.41458386 -0.82105273 -0.60800004 -0.34703222
0000a0 cb fa 91 3f e8 1d 1f 3f 13 e2 83 bf ec d8 05 3f
       1.1404661 0.6215501 -1.0303367 0.5228412
0000b0 16 6a 51 3f ab e8 56 bf 61 24 97 be 74 0c 32 3f
       0.818025 -0.83948773 -0.29519942 0.6955025

model/conv2d_4/Conv2D_bias_fused_bn f4 [48]
000000 3a cc c6 bf 00 a8 df 3e bd e6 48 40 a0 dc 47 bf
       -1.5531075 0.4368286 3.1390831 -0.7807102
000010 c4 f7 a0 bf e3 07 c2 bf 32 41 0e bf 79 69 1b 3f
       -1.2575612 -1.5158657 -0.5556823 0.60707814
000020 0e 6b f0 3f 4c a7 60 3e 0a b7 0c 3e 54 49 e6 bf
       1.878267 0.21938819 0.13741699 -1.7991128
000030 d2 ea ca bd 90 c5 54 3f 6d e9 4b 3f a0 4e a4 bf
       -0.0990807 0.83113956 0.79653054 -1.2836494
000040 79 45 10 c0 ec 63 07 be 85 3d 4d bf 3d 8a dc bf
       -2.2542403 -0.13221711 -0.80171996 -1.7229687
000050 10 7f 61 bf f6 ff 90 bf 50 d6 77 be e7 2a 86 bf
       -0.88084507 -1.1328113 -0.24202847 -1.0481843
000060 e4 3c ec be f3 47 cb be 43 46 1a bf 2d 9d f3 3f
       -0.46140206 -0.3970333 -0.6026346 1.9032341
000070 00 30 df 39 e8 b3 04 3e 82 b8 d8 3d 2b 48 6a 3e
       0.00042569637 0.12959254 0.10582067 0.22879092
000080 a3 98 82 3f b4 a8 13 bf f8 5c 39 3f 02 27 99 be
       1.0202831 -0.57679296 0.72407484 -0.29912573
000090 71 0e 15 c0 8e 5e f6 3e 18 95 ba bc e6 18 95 be
       -2.3290064 0.48119015 -0.022776172 -0.29120559
0000a0 48 30 20 3e 15 2a be 3f a3 93 1f bf ca 6a 3c bf
       0.15643418 1.4856592 -0.6233465 -0.7360045
0000b0 82 93 60 3e 06 e5 8e 3e 77 da 18 bf 3d 96 5e 3f
       0.2193127 0.27909106 -0.5970835 0.86947995

model/conv2d_3/Conv2D_bias_fused_bn f4 [48]
000000 ec b1 71 bf 84 68 2c be f3 b0 6e bf ca 73 7a 40
       -0.9441211 -0.16836745 -0.93238753 3.9133172
000010 d9 76 c4 40 27 9f 31 40 02 eb 29 c0 e7 38 12 40
       6.139508 2.775339 -2.6549687 2.284723
000020 85 76 98 3e d5 a5 5b 40 15 5a 53 c0 70 67 6c c0
       0.29777923 3.4319966 -3.3023732 -3.6938133
000030 28 05 1f 3f 20 1e 7b 3f 51 a1 8c 40 0c 23 e7 bd
       0.6211724 0.9809284 4.394692 -0.112859815
000040 cc 63 13 c0 84 8d e0 3f 12 b7 a9 40 80 b8 18 3f
       -2.302966 1.7543187 5.3035975 0.59656525
000050 cd f4 96 3f 64 51 15 3f 31 4f 81 c0 c7 bc 5d bf
       1.1793457 0.5832732 -4.040917 -0.86616176
000060 36 dd 84 be 40 54 9f bf 9a 1a 34 40 be f5 a9 bf
       -0.2595002 -1.2447586 2.8141236 -1.327812
000070 35 67 af bf ca 36 89 c0 b1 58 be 3f 5c 49 d8 3f
       -1.3703371 -4.287938 1.4870816 1.6897388
000080 ae 61 80 3e af b8 62 bf de 99 c4 3f 11 d1 7a c0
       0.25074524 -0.88563055 1.5359457 -3.9190104
000090 08 ba c3 3e 31 c0 66 bf ca 02 fd 3f f9 d5 e5 c0
       0.38227868 -0.9013701 1.9766476 -7.1823697
0000a0 88 99 75 bf c2 6f a6 3f 41 a3 9d 40 f2 16 92 c0
       -0.95937395 1.3002856 4.9261785 -4.565301
0000b0 69 f4 1c 40 18 05 bd bf 14 9d b6 3f 1e f1 21 c0
       2.4524176 -1.476718 1.4266686 -2.5303416

model/conv2d_2/Conv2D_bias_fused_bn f4 [24]
000000 bf 33 57 bf 6b ad 60 40 da 98 1c 40 d4 35 7c 3f
       -0.84063333 3.5105846 2.4468293 0.98519635
000010 bf bb 41 bf ff 8f 73 40 b6 0b bc 3f 10 74 14 bf
       -0.756771 3.8056638 1.4691074 -0.579896
000020 c4 c5 78 40 12 a7 f8 3f 1c 6e 92 3e 76 78 e3 be
       3.8870707 1.9425986 0.28599632 -0.44427842
000030 c9 98 ae 3f e8 0a 63 3e 5b f2 c5 3f 6e 20 e0 3e
       1.3640376 0.22172129 1.5464586 0.43774742
000040 da 37 2e bf ab ce 93 40 60 33 5f 3d 64 54 df bf
       -0.6805397 4.618978 0.054492354 -1.7447629
000050 7a 92 a6 bf 2e c2 04 3f 18 9c 95 bd a4 8a c0 3f
       -1.3013451 0.51858795 -0.07305163 1.504231

model/conv2d_18/Conv2D_bias_fused_bn f4 [96]
000000 2c 6f 8e 3d a0 aa 1b 3f ca 27 57 3f 00 96 50 3b
       0.06954798 0.6080723 0.8404509 0.0031827688
000010 5a e0 95 be 5a f6 5e be 16 d2 84 3f 5e f1 9b 3f
       -0.2927273 -0.21773663 1.0376613 1.2183034
000020 1d 7a 49 3f f2 5c bc 3f 8f de a0 3f 00 0c 18 be
       0.78701955 1.4715865 1.256792 -0.14848328
000030 e2 ad c4 be 44 45 94 3f e3 9a a5 be d2 b3 48 3f
       -0.38413912 1.1583638 -0.32344732 0.78399384
000040 04 d8 25 40 b5 39 49 bf 88 9c 82 3f 48 61 1a 3e
       2.5913095 -0.7860368 1.020402 0.15076172
000050 1e 78 27 bf 83 20 43 3e 0c 4d d6 3e 55 7a 1e 40
       -0.6541766 0.19055371 0.41855657 2.4762166
000060 4e 80 c4 3f 71 a3 4f be 52 e9 43 3f 30 2c 51 3f
       1.5351655 -0.20277192 0.76527894 0.8170805
000070 89 5d 97 be 84 a0 37 be 7a a9 fd 3f af 33 c8 3f
       -0.2956355 -0.17932326 1.9817345 1.5640773
000080 94 29 4a be db bd 4b 3f b4 70 b6 be 10 2a 09 be
       -0.19742423 0.7958657 -0.3563286 -0.13394952
000090 f0 f3 44 bd b2 45 16 be da 4d 0c 3f 06 a7 fb be
       -0.0480842 -0.14675024 0.5480629 -0.49150866
0000a0 ca 44 f2 be 2b e3 c5 3e 7e d8 d9 3e 65 ce 9b bf
       -0.47318107 0.38649878 0.42547983 -1.2172362
0000b0 08 25 95 be 46 dd 0f 40 41 f2 56 3f 18 0b 4c bd
       -0.29129815 2.2478805 0.839634 -0.049815267
0000c0 04 a6 b4 3f ae 1c fe be ce d1 00 bf bc 15 ea 3e
       1.4113164 -0.49631256 -0.50320137 0.45719707
0000d0 a0 44 16 bd 52 a0 4d bf 3a 28 d1 3e c1 f4 8b 3f
       -0.03668654 -0.80322754 0.40851003 1.0934068
0000e0 24 2a 05 3e 42 a1 8d 3f 68 77 44 3f 1a f7 03 3f
       0.13004357 1.1064837 0.767447 0.5154892
0000f0 e7 ad 51 3f 1e ce d7 be 91 ee 32 3f a6 1c ee 3e
       0.8190598 -0.42149442 0.69895273 0.46506232
000100 7f 20 83 40 b5 d5 11 be 34 8e e1 3c f0 0e 2d bd
       4.097717 -0.14241679 0.027533628 -0.042250574
000110 f4 1e ca 3e 4c 64 14 bf 28 12 60 be 6c e0 f6 3e
       0.3947674 -0.5796554 -0.21881926 0.48218095
000120 ff ba fc be 10 1d 96 3d 04 c1 8c 3d f3 af e3 3e
       -0.49361417 0.07329762 0.06872752 0.44470176
000130 10 2b cb be 0c fd 74 3d 86 c7 9a 3f 50 1f 13 bd
       -0.39681292 0.059811637 1.209214 -0.035918534
000140 ca 3c 6d 3f 24 16 78 bd 24 d4 67 bd c2 a3 32 be
       0.9267088 -0.06056799 -0.056598797 -0.17445281
000150 34 8c 2a 3f b0 d1 b1 3d 9d 16 a9 3e c6 83 46 3f
       0.66620183 0.08682573 0.33025065 0.7754482
000160 00 d2 31 ba 2a c2 30 bf fc 28 d2 3e 80 3d 8e bb
       -0.00067833066 -0.6904627 0.41046894 -0.0043408275
000170 54 d8 6e bf 28 8e b3 bd 2a 5d 13 3f 70 2d f8 3e
       -0.9329884 -0.087673485 0.5756403 0.48472166

model/conv2d_17/Conv2D_bias_fused_bn f4 [96]
000000 4c 7b f9 be 64 05 2f 3f de e0 a0 3f 44 b0 23 be
       -0.4872688 0.683676 1.2568624 -0.15985209
000010 14 ab 4e 3f 8b 0f 3b 3f e0 fa 6b 3e 8e f0 9c be
       0.80729795 0.7307059 0.2304492 -0.3065228
000020 54 77 89 bd 00 e2 be ba 9b 1a 0b bf a8 5b 3d be
       -0.06712213 -0.0014563203 -0.5433747 -0.18491995
000030 ae 64 04 3f 77 07 46 3e 6c ba 46 be c0 3d 9b 3c
       0.51716125 0.19338785 -0.19407052 0.018950343
000040 38 b3 44 bd 5c 2c 53 bf 2f 5c c5 be 4c fe 04 bf
       -0.04802248 -0.8248956 -0.38546893 -0.51950526
000050 25 b0 23 bf 26 19 12 40 1e 10 d7 be 3c 11 0a bd
       -0.6394065 2.282785 -0.42004484 -0.033707842
000060 32 de 8c 3e 10 78 38 be c0 72 d8 3c 76 d8 ff 3e
       0.27513272 -0.1801455 0.026421905 0.49969834
000070 7a b4 46 3e 48 cf 85 3d 8a 06 5a be f8 03 20 3e
       0.19404784 0.065336764 -0.21291557 0.15626514
000080 a7 58 68 3f 07 18 1d bf 00 fe 23 bd 1e 80 87 be
       0.9076027 -0.6136479 -0.040037155 -0.26464933
000090 08 a8 98 3d 5b a4 9b be df 58 28 bf fe 9d 96 3e
       0.074539244 -0.3039883 -0.65760607 0.29417413
0000a0 98 6a 97 3e c0 54 08 3c e5 6c b2 3e 28 84 97 3d
       0.29573512 0.008320987 0.34848705 0.07398254
0000b0 ab 4f 1c 3f f8 1b 37 be 9b 0d a2 3e 58 16 4b bf
       0.61059064 -0.17881763 0.31651005 -0.7933097
0000c0 d8 5e 39 bf 48 00 0a bf c6 db 7f be 42 ac b3 bf
       -0.72410345 -0.5390668 -0.2498618 -1.4036944
0000d0 9c 2b 8e be dd 33 d2 bf fa 07 83 3e 82 4a 5f be
       -0.27767646 -1.6422077 0.25592023 -0.21805766
0000e0 32 99 2b bf 98 e5 51 bf 20 e0 78 3e b0 b1 ae be
       -0.6703063 -0.8199096 0.24304247 -0.3411994
0000f0 5e 88 ce bd c5 65 6e be e0 4e 74 3d 4e cf 15 bf
       -0.10084604 -0.2328101 0.059645534 -0.58519447
000100 a6 b7 20 be b0 3e 5b 3e c5 6a 99 be 09 4b 36 bf
       -0.15695056 0.21410632 -0.2996427 -0.71208245
000110 98 3d 8e 3e 35 93 c2 3f 88 dd c2 3d 1c cb 6f 3f
       0.27781367 1.5201174 0.0951491 0.93669295
000120 88 a6 40 be c0 76 33 3d f8 48 27 40 10 70 78 3d
       -0.18813527 0.04381442 2.6138287 0.060653746
000130 1c 79 9d bf c2 d1 14 3f 4d 5f 39 be d4 c0 e0 be
       -1.2302585 0.58132565 -0.1810276 -0.43897116
000140 20 08 31 3e 3c e4 3e 3e 70 9e 16 bf c2 1c ee be
       0.17288256 0.18641752 -0.58835506 -0.46506315
000150 96 fc 32 be a5 a5 df be 00 c0 3b be 7d f6 94 bf
       -0.17479166 -0.43681064 -0.18334961 -1.1637722
000160 5d 27 7b bf 40 56 45 bc 0c c9 ee be 74 aa d3 be
       -0.9810694 -0.012044489 -0.46637762 -0.41340983
000170 e0 68 df bc e0 d7 f2 bd 78 aa 74 3f 54 33 0c bf
       -0.027271688 -0.11857581 0.95572615 -0.5476582

model/conv2d_16/Conv2D_bias_fused_bn f4 [96]
000000 09 45 17 bf a0 ad aa bf 6c 93 6e be 4e 04 b4 be
       -0.59089714 -1.3334236 -0.23298424 -0.35159534
000010 f2 f4 3c bf 1d 8a f6 3c 19 48 c7 3e 02 18 8c bf
       -0.73811257 0.030095154 0.38922194 -1.0944827
000020 90 13 37 bf 00 bf 1b bf 80 c8 d8 3e 14 79 82 3f
       -0.71514225 -0.6083832 0.4234047 1.01932
000030 db 13 f2 3e 18 4f 82 be d0 77 74 bf ae aa fc 3e
       0.47280774 -0.2545097 -0.9549532 0.49348968
000040 52 c4 71 bf c4 40 bc be 92 00 bd be 44 0a 5d be
       -0.94440186 -0.36768162 -0.36914498 -0.21585947
000050 e0 81 9d 3e d5 dc 96 3e 88 8e b2 bf a6 e1 da 3e
       0.3076315 0.29465356 -1.3949747 0.4275028
000060 c0 be 0d 3d 08 b1 46 3e 00 f7 be bb 2f be 0e bf
       0.03460574 0.1940347 -0.0058277845 -0.5575895
000070 65 38 91 bf 0c 7c d0 be 28 74 da bf 12 61 96 be
       -1.1345335 -0.4071964 -1.7066698 -0.29370934
000080 89 55 01 3f 00 91 36 bf cc 6f a3 bd ea 9d 6c bf
       0.5052114 -0.71315 -0.07980308 -0.9242846
000090 f8 e8 c6 bd f8 ee 00 3e 6a f7 5e bf 82 c0 55 3e
       -0.09712404 0.1259116 -0.87096274 0.20874217
0000a0 72 b2 d7 3e 18 58 06 bf 4c e6 97 be 30 01 7c 3e
       0.4212833 -0.5247817 -0.2966789 0.24609828
0000b0 aa 28 41 3f 80 89 16 bc 86 4e bd be d8 ca 23 3e
       0.75452673 -0.009188056 -0.3697397 0.15995347
0000c0 e8 37 82 bf c0 42 57 be 78 c0 e4 3d b3 0f fa be
       -1.0173311 -0.21021557 0.11169523 -0.48840103
0000d0 20 6d 62 be c8 9f 17 3e 6a a6 13 bf 90 bd 63 3e
       -0.2211194 0.14807045 -0.576758 0.22240281
0000e0 80 e5 8c bf 8a d5 46 bf dc aa 9c 3e 44 25 2d bf
       -1.1007538 -0.77669585 0.30599105 -0.6763499
0000f0 1a 42 ed bf 92 df 27 bf 19 a1 e9 be a4 c8 10 3f
       -1.8535798 -0.65575516 -0.4563072 0.56556153
000100 7c 19 63 3e b1 94 73 3f 98 d3 06 bf 90 f7 65 3f
       0.2217769 0.9514876 -0.52666616 0.89830875
000110 af 08 2f bf ff 82 8f 3e 28 04 08 3e de 98 bb 3e
       -0.68372625 0.2802963 0.13282835 0.36640066
000120 62 ce 67 bf c0 78 5e be aa 18 6d be fc 37 e0 be
       -0.9054929 -0.2172575 -0.2315394 -0.43792713
000130 aa e1 ab 3f f4 ee 6d be 30 54 84 3d 50 7d 20 bf
       1.3428242 -0.23235685 0.0646137 -0.6269121
000140 b5 46 2f bf b6 4f 01 3f 4e 00 a3 3e 38 49 ac 3d
       -0.68467265 0.50512254 0.3183617 0.08412403
000150 f2 37 40 bf 3f d3 e6 3e 9b 35 18 3f a8 01 44 be
       -0.75085366 0.45083043 0.59456795 -0.19141257
000160 c6 97 4d bf 30 0a 19 3d 94 31 ff 3d 77 d5 87 be
       -0.8030971 0.03736323 0.12460628 -0.26530048
000170 61 84 04 bf 0c 28 a9 be 90 45 fb 3d 24 2e 2f 3e
       -0.51764494 -0.33038366 0.12269127 0.17107445

model/conv2d_15/Conv2D_bias_fused_bn f4 [96]
000000 10 57 dd 3e d8 ec 19 bf d5 55 9b bf 68 66 8a 3e
       0.43230486 -0.6012702 -1.2135569 0.27031255
000010 30 ef c8 3f f1 8c de 3e 10 b9 93 bd d2 d7 8a bf
       1.5697994 0.43466905 -0.07213032 -1.0847113
000020 32 ab 48 bf c2 2e 31 be a8 d1 f7 be bc 2a dc be
       -0.78386223 -0.17302993 -0.48402143 -0.43001354
000030 4a 7f 25 bf 58 ef 05 3f 9e 07 33 3f 5b 28 03 bf
       -0.6464735 0.52318335 0.699335 -0.5123345
000040 03 82 82 3f 72 b0 a1 3e 9c e8 29 bf 70 79 e0 be
       1.0195926 0.3157993 -0.6637056 -0.4384265
000050 ba f4 49 bf 00 07 4b 3d 04 8c cb 3e 80 f4 23 bc
       -0.7888905 0.049567223 0.3975526 -0.010007024
000060 b6 90 3f 3e 90 44 30 bf ef 51 0f bf 32 22 c3 3e
       0.18707547 -0.6885462 -0.55984396 0.38112026
000070 82 f0 9c be e6 96 86 3f b8 ca 56 3e 10 1a 06 3d
       -0.30652243 1.05148 0.20975769 0.0327397
000080 00 25 f9 3c 32 77 55 bf bf 27 c7 be 40 67 cd bc
       0.03041315 -0.83385 -0.3889751 -0.025073647
000090 80 cf 30 3e d1 65 96 bf 7b 46 95 bf c6 d9 07 bf
       0.17266655 -1.1749822 -1.1662134 -0.5306667
0000a0 10 23 7c bc 0a a0 49 3f 06 1c 01 bf be cd 11 bf
       -0.015389219 0.78759825 -0.50433385 -0.5695456
0000b0 1c 65 2a be e2 18 06 bf 8a 9b be be 78 70 7a 3e
       -0.16640133 -0.5238172 -0.37228042 0.24456966
0000c0 ae 8a 60 3f b8 76 17 bd a6 cc b2 3e 30 65 52 bd
       0.8771161 -0.036978453 0.3492176 -0.05136603
0000d0 00 90 84 bf 34 60 6b 3f e0 b2 df bd 54 f7 1c bf
       -1.0356445 0.9194367 -0.109227896 -0.6131489
0000e0 0c 8a fc be 89 91 60 3f 40 96 c5 3d 44 d0 a6 be
       -0.4932407 0.8772207 0.096477985 -0.3258077
0000f0 ee d7 38 bf e8 46 82 bc a8 40 45 3e fc 84 04 3f
       -0.7220448 -0.015902951 0.19262946 0.5176542
000100 ce 0d b7 bf 3e da bd be 36 d1 52 bf fc 5b 04 3d
       -1.4301088 -0.37080568 -0.8235048 0.032314286
000110 40 5b 7a bd 04 82 a0 3e 12 9c 13 bf 44 6c 96 be
       -0.06112218 0.31349194 -0.5766002 -0.29379475
000120 c1 a6 06 bf 14 3f 0e bf c0 56 a4 3d 5a 93 00 bf
       -0.52598196 -0.55565 0.08024359 -0.5022484
000130 c2 12 f5 3e 31 68 88 bf cc 09 94 bf f0 b5 84 3f
       0.47865874 -1.0656797 -1.156549 1.0368023
000140 82 8d 26 bf 8b 47 02 bf b0 74 ab 3e e0 b7 06 be
       -0.65059674 -0.50890416 0.33487463 -0.1315608
000150 f8 bd ea be 48 02 0a bf 40 fd 94 3c e6 5b 84 be
       -0.4584806 -0.5390973 0.018187165 -0.25851363
000160 12 50 b4 be 00 e5 52 bc 2f fa d9 be 1c 70 d4 be
       -0.3521734 -0.012871981 -0.42573687 -0.41491783
000170 5a ec c0 be 8c 47 82 3d 43 c6 6c 3e 70 9c a4 3c
       -0.37680322 0.06361303 0.23122506 0.020094126

model/conv2d_14/Conv2D_bias_fused_bn f4 [96]
000000 32 b6 bd be 75 60 96 bf 40 ca ce be be 3f 81 bf
       -0.37053066 -1.1748186 -0.4038868 -1.0097578
000010 a0 10 5d bd 3f ac 24 c0 7f 2b 83 bf ca 5b d6 be
       -0.053970933 -2.573013 -1.0247649 -0.41866904
000020 d7 17 6c bf a8 7f ba bf a4 3e 2e be 20 8a 2f bf
       -0.92223877 -1.4570208 -0.17016083 -0.6857014
000030 a9 70 1a bf 4a 12 43 bf ca 12 1d bf 33 9c 1c bf
       -0.60328156 -0.7619978 -0.61356795 -0.6117584
000040 af fb 1a bf 72 a5 64 bf 1a 15 a1 3e eb 93 d6 bf
       -0.6054029 -0.8931495 0.31461412 -1.6763891
000050 66 8e 07 bf f0 6d 9b bd 31 21 42 bf 1c 46 b9 be
       -0.5295166 -0.07589328 -0.75831896 -0.36186302
000060 ac b6 ac be c8 22 2d be 86 b8 d6 be 5c 66 38 bf
       -0.33733118 -0.16907799 -0.41937655 -0.7203119
000070 dc 17 35 be 72 7c 0b bf 58 b4 96 bf f0 ed 09 bf
       -0.17684883 -0.54486763 -1.1773787 -0.5387869
000080 74 55 7f bf 5b a5 ac bf 19 b2 2b bf 0c 74 00 bf
       -0.99739766 -1.3487962 -0.6706863 -0.50177073
000090 23 c4 42 bf 12 f3 fc bf 3a 44 26 bf 21 37 39 bf
       -0.7608053 -1.9761679 -0.64947855 -0.72349745
0000a0 56 d6 05 bf 52 cb 5e bf ac 81 53 bf c6 db b6 bf
       -0.52280176 -0.8702899 -0.8261974 -1.428582
0000b0 12 5d 68 be 2d 44 58 bf 58 05 4f 3e 08 cb 4d bd
       -0.22691754 -0.8447903 0.20216882 -0.050242454
0000c0 4c 6d 41 bf c8 9d 68 bf 40 3b b1 bc f2 cc b5 be
       -0.755574 -0.90865755 -0.021634698 -0.35507923
0000d0 58 83 40 be 3e 7e 0a bf a9 f0 74 bf 7c 18 1b bf
       -0.18800104 -0.5409888 -0.9567972 -0.60584235
0000e0 1c 81 ef be 80 fd df 3d 2e f7 6f bf 90 ee b3 bd
       -0.4677819 0.10937023 -0.9373654 -0.087857366
0000f0 cb 13 ab bf da d0 de bf 6d f7 2a bf d0 39 82 3e
       -1.3365415 -1.7407486 -0.6678379 0.25434732
000100 c0 13 e1 3d c4 21 6d bf b9 28 93 bf 6f 50 e1 be
       0.10990095 -0.9262965 -1.1496803 -0.44006678
000110 67 11 a1 bf 3c 2a 63 be 21 c0 ed be bf 75 fe be
       -1.2583436 -0.2218408 -0.46435645 -0.49699208
000120 88 53 3f bd ad 0c 4e bf 00 cf 05 bf 00 1e 82 bd
       -0.04671052 -0.8048809 -0.5226898 -0.06353378
000130 f3 bd 91 be 82 ac 85 bf b9 14 26 bf a7 0b 54 bf
       -0.28465232 -1.044327 -0.6487537 -0.8283028
000140 a3 c0 74 bf f5 ad 9f be 1c cd 4f bf b0 d8 dd 3d
       -0.9560644 -0.31187406 -0.8117235 0.108323455
000150 41 38 15 c0 1c dd a4 be dd d4 f3 be 7d 15 e3 be
       -2.3315585 -0.32199943 -0.4762334 -0.44352332
000160 71 8c d6 be e8 e8 b6 bd fa 8f 10 bf 76 56 f3 be
       -0.41904023 -0.08931142 -0.5646969 -0.47526902
000170 7e 14 3f be 7f 9e 37 bf 84 00 86 be cf ee f3 be
       -0.18660161 -0.7172622 -0.26172268 -0.47643134

model/conv2d_13/Conv2D_bias_fused_bn f4 [96]
000000 cc 48 fc be 52 f1 10 bf ed d2 35 bf 32 74 05 3e
       -0.4927429 -0.56618226 -0.7102497 0.13032606
000010 21 3f 74 bf dd bf 0e bf 1e f2 8e be 71 51 04 3f
       -0.9540883 -0.5576151 -0.27919096 0.5168677
000020 70 32 b7 bd 74 39 74 be 78 03 fe bc 60 08 01 3c
       -0.08945167 -0.23850042 -0.031007513 0.007875532
000030 c8 90 bf bd 5d 95 d1 3e f7 5f ce bd 99 4b 75 bf
       -0.09353787 0.40934268 -0.100768976 -0.9581848
000040 24 40 65 bf 4f 99 a8 be 48 09 5b be 81 90 49 3e
       -0.89550996 -0.32929465 -0.2139026 0.1968403
000050 af 3e 1c 3f 90 8d 96 be 0d bd da be cc b1 8d bf
       0.6103315 -0.2940488 -0.4272236 -1.1069884
000060 e4 af 70 3f 90 34 84 3d 20 bf c2 bf 72 89 21 be
       0.9401839 0.06455338 -1.5214577 -0.15775087
000070 aa 43 cb bf 6a 3f 30 bf 20 ed 3b bc 42 af 2f bf
       -1.5880024 -0.6884676 -0.011470109 -0.686268
000080 40 cb f5 3b 0a 0d 33 3f 84 93 a3 bf 48 94 89 bf
       0.007501036 0.6994177 -1.2779393 -1.0748377
000090 06 1b a2 3e 46 65 8a 3e 10 42 6a be 0e db 33 bf
       0.31661242 0.2703039 -0.22876763 -0.70256126
0000a0 7b a8 1f bf 10 f1 24 3d 88 59 eb be b0 a0 a8 3d
       -0.62366456 0.040268958 -0.45966744 0.08233774
0000b0 30 38 50 bf cc eb 18 3f 7b 88 18 bf 88 2e 14 bf
       -0.81335735 0.597348 -0.5958325 -0.578835
0000c0 4a b0 9a 3e 17 3e a0 bf 78 f0 98 bd ae 87 a4 be
       0.30212623 -1.2518948 -0.07467741 -0.32134765
0000d0 9a 58 75 bf 0c 29 10 3f a6 44 84 bf 34 4c 2e 3e
       -0.9583832 0.5631263 -1.033345 0.17021257
0000e0 2e 87 07 c0 32 7f ab bf 4e db c2 3e b9 c5 96 be
       -2.1176257 -1.3398192 0.3805794 -0.29447725
0000f0 b2 f6 30 3f 98 97 ed 3d 08 7a 81 bd 69 a1 c8 bf
       0.6912643 0.1160118 -0.06322104 -1.5674258
000100 df b0 d4 bf d2 cc a9 be 14 80 69 be 5d 89 0e c0
       -1.6616477 -0.33164078 -0.22802764 -2.227134
000110 03 6a 20 bf 50 60 3e be 40 10 1b bf 50 03 4c be
       -0.6266176 -0.18591428 -0.6057167 -0.19923139
000120 27 47 ce bf c3 91 07 bf 5c 9a c0 be 98 bb 33 be
       -1.6115464 -0.5295679 -0.37617767 -0.1755203
000130 00 ad 22 bf c9 f8 d3 be aa 1d 0d 3e fc c9 9d be
       -0.6354523 -0.41400746 0.13780847 -0.30818164
000140 04 3d 10 bf 06 d0 e8 bf e2 a9 ba be 24 76 51 bf
       -0.563431 -1.8188484 -0.36457735 -0.81820893
000150 c0 e1 e3 be 90 e9 60 bf 16 b1 28 bf 8a 4d 4f bf
       -0.4450817 -0.8785639 -0.6589521 -0.8097769
000160 04 b9 a3 bf dc 75 88 3f 94 53 fe be d0 ad fd 3d
       -1.2790837 1.0660968 -0.4967314 0.12386668
000170 99 a2 6e bf 47 db e4 be 45 51 82 be 8d 95 1a bf
       -0.93216854 -0.44698545 -0.2545263 -0.60384446

model/conv2d_12/Conv2D_bias_fused_bn f4 [96]
000000 c6 db 9b be cf 51 b1 bf 34 df 5b bf 47 35 45 3d
       -0.3044111 -1.3853091 -0.85887456 0.048146512
000010 38 e5 d5 bd 50 db 9e be e8 c5 46 bd ce 42 61 be
       -0.10444111 -0.31026697 -0.04852858 -0.2199814
000020 aa 20 29 3d da b8 1a 3f 30 4a 65 bd 57 11 20 be
       0.041290917 0.6043831 -0.055978954 -0.15631615
000030 1c 3e 15 be 10 f5 67 3d 2b 33 3b bf 84 b2 e9 be
       -0.14574474 0.056630194 -0.7312495 -0.4564401
000040 80 b8 4d bf 7a 99 86 bf b3 33 d0 be 15 12 74 3f
       -0.8035965 -1.0515587 -0.40664443 0.9534009
000050 b6 da 2d 3f 8b 70 9e bf 54 07 25 3e e3 41 8a 3e
       0.6791185 -1.2378095 0.16116077 0.27003393
000060 e1 72 e3 be 25 89 0d 3f 20 7e 15 3e 11 cd 81 3f
       -0.44423583 0.5528739 0.14598894 1.0140706
000070 e0 ca e3 bc 6e 19 1d 3f 9e 95 53 3f 1a 88 c8 3e
       -0.0278067 0.6136693 0.8265017 0.39166337
000080 92 d3 36 3e ba 26 b1 bf 07 a8 03 3f 5c 4d 7d bf
       0.17854145 -1.3839943 0.51428264 -0.98946166
000090 be ca 5f bf 6a 7a cb 3e 22 36 5f bf f3 b5 31 bf
       -0.87418735 0.39741832 -0.87191975 -0.6941826
0000a0 cf 18 23 3f c4 9c f6 be 46 a6 ce 3e f7 d3 f8 be
       0.6370973 -0.48166478 0.40361232 -0.48599216
0000b0 48 e5 f3 3e 69 97 a8 bf 7e 7e 77 3f 17 d3 c3 be
       0.47635865 -1.3171207 0.96677387 -0.38246986
0000c0 46 ba d7 bf 15 cc 4e bf dc 33 30 3e 74 18 a5 3e
       -1.6853721 -0.80780154 0.17207283 0.3224522
0000d0 70 ad 89 bf 18 85 04 3e ee 28 98 bf b8 75 3c 3e
       -1.0756054 0.12941396 -1.1887491 0.18404281
0000e0 30 34 57 3d fc cb 06 3e a2 1c 16 bf 8b 22 47 bf
       0.052540004 0.13163751 -0.5863744 -0.77787083
0000f0 62 21 72 3f 4a 30 02 3f 40 c4 86 bc c0 49 dd bc
       0.9458219 0.50854933 -0.016451001 -0.027012706
000100 a6 4a ce 3e 74 df d4 bf 1a 95 b8 bf a9 f0 7b bf
       0.40291327 -1.6630692 -1.4420502 -0.98414093
000110 82 22 6e bf c8 1a f1 bd 63 2e 06 bf e9 36 d6 3e
       -0.93021405 -0.11772686 -0.5241453 0.41838768
000120 20 f7 0b bf 8a 28 3b bf 5b f5 ea 3e cc 35 d4 3e
       -0.5467396 -0.7310873 0.45890316 0.41447294
000130 68 98 47 bf dc 62 38 bf df a6 96 be 4c 0d db bf
       -0.7796693 -0.7202585 -0.29424188 -1.7113433
000140 bb 72 3b 3e a3 ca ad bf 03 0a 27 3f 34 21 7d bf
       0.18305485 -1.3577465 0.6524965 -0.9887879
000150 fd b0 98 bf 88 e8 f4 be 31 bc 47 bf 1f eb 2e bf
       -1.1929013 -0.47833657 -0.7802153 -0.68327516
000160 a0 0f 48 bf 8e aa 90 be a0 aa af 3d ff 69 a4 be
       -0.7814884 -0.28255123 0.08577466 -0.3211212
000170 ed 0b 78 bf a5 f6 16 bf b0 17 15 3e 96 27 02 be
       -0.968932 -0.589701 0.14559817 -0.12710413

model/conv2d_11/Conv2D_bias_fused_bn f4 [96]
000000 f6 18 ce bf 20 6c 35 3e 4b 1e 51 bf ed 86 0c c0
       -1.6101367 0.17717028 -0.8168685 -2.1957352
000010 1f 30 4e 3f 46 39 4a bf 6e 61 b4 bf a3 fd 83 3f
       0.80542177 -0.7899364 -1.4092233 1.0311779
000020 8c 4a ac 3f 52 af 38 40 00 13 b8 3c 8c e1 b1 be
       1.346025 2.8857007 0.022469997 -0.3474239
000030 e2 20 0b 40 58 1a a7 bf d4 82 aa bf 8b 30 e1 3e
       2.173882 -1.3054914 -1.3321176 0.43982348
000040 c1 36 24 c0 d0 4b 81 3f 93 ba f9 3f d7 1d 80 3f
       -2.565842 1.0101261 1.9510063 1.0009106
000050 f4 11 fe 3d d0 74 d3 be e0 49 b4 3f 01 73 d1 bf
       0.12405768 -0.41300058 1.4085045 -1.6363221
000060 02 2f 08 c0 38 bf 29 c0 c2 3c 5d bf da 95 fd bf
       -2.1278691 -2.652296 -0.86420834 -1.9811356
000070 fa 52 d3 3f 73 a4 bb bf c0 ff 46 3e e4 a7 13 40
       1.6509697 -1.4659561 0.19433498 2.3071222
000080 a0 3c 02 c0 20 2a 9b be 00 de 25 be c0 0b 25 3e
       -2.0349503 -0.30305576 -0.16197968 0.16117764
000090 47 10 9f bf c3 17 ab bf 80 d2 9d 3f 62 3f 08 3f
       -1.2426842 -1.3366627 1.2329865 0.53221714
0000a0 90 98 77 3f ca cf 34 bf 19 1e 0f c0 55 35 07 c0
       0.96717167 -0.7062956 -2.236212 -2.1126301
0000b0 dd c3 44 bf 52 37 e0 3f df b7 b6 bd 7e ab e7 3d
       -0.76861364 1.7516882 -0.089217894 0.113120064
0000c0 86 9e 91 bf df d6 96 3f 30 03 a1 3f a8 72 9f bf
       -1.1376503 1.1784323 1.2579098 -1.2456865
0000d0 88 2a 9e 3f a4 3c 7f 3e 34 36 51 3f 6f 9e e5 be
       1.235673 0.24925476 0.8172333 -0.44847438
0000e0 c4 d7 8c 3d cc 88 fb bf 0f 1f d5 bf e2 3a 03 3f
       0.068770915 -1.9651122 -1.6650103 0.51261723
0000f0 57 94 aa bf c4 2b 39 c0 06 4e e4 be 5e 22 d9 3e
       -1.332652 -2.8932962 -0.44590777 0.42409033
000100 f0 af ce 3d 92 af 18 bf 6c a7 01 40 84 e4 40 3e
       0.10092151 -0.596429 2.0258436 0.18837172
000110 30 0c 4c bf a8 55 3d 3f 74 a7 27 c0 05 25 6c bf
       -0.79706097 0.73958826 -2.6195955 -0.9224399
000120 a0 92 3c 3c 9a 21 6a 3f d0 34 33 c0 14 6e b0 be
       0.0115095675 0.9145752 -2.8000984 -0.34458983
000130 6f 2a 0a 40 40 4b db be 1b 25 60 bf cb 63 ad 3f
       2.15884 -0.4283085 -0.8755662 1.3546079
000140 9a 3b 12 3f 0e bb 10 c0 e6 a9 42 3f a1 42 a8 bf
       0.57122195 -2.261417 0.76040494 -1.3145334
000150 1a 1c 8b 3f 8f 17 f6 bf ca 14 ca bf 12 03 4c 3f
       1.0867951 -1.922594 -1.5787594 0.79692185
000160 f4 9e a1 be 8c 10 50 c0 60 1a e4 bf b6 d0 be 3f
       -0.31566584 -3.25101 -1.7820549 1.4907444
000170 4f 11 d6 be 57 2e 99 bf 49 a1 5e 3f 76 a7 8e bf
       -0.4181008 -1.1967267 0.8696485 -1.1144855

model/conv2d_10/Conv2D_bias_fused_bn f4 [72]
000000 d8 05 64 bf 64 4b 7f bf 6c 53 52 3e 12 29 76 bf
       -0.89071417 -0.9972441 0.20539635 -0.9615642
000010 f8 00 4b 3d 0f 70 bd bf 48 6b 1e be 00 f1 2f bb
       0.04956147 -1.4799823 -0.15470612 -0.0026846528
000020 9e 5c 97 3f 24 c2 bb 3e ae 2a 8f 3f c4 3d dd be
       1.182514 0.36671555 1.11849 -0.43211186
000030 98 a7 6d be 85 7c 0c bf ae 1e 4c 3e 02 ab 1b bf
       -0.23208463 -0.548775 0.19933578 -0.6080781
000040 82 51 f3 3e c1 aa d0 3d 5a 68 0d be 7e 5b f9 bd
       0.47523123 0.10188819 -0.13809338 -0.12175654
000050 89 b2 95 3f b8 c4 c4 3d be 99 97 bf ac ec 7a 3e
       1.169511 0.096078336 -1.1843793 0.24504346
000060 44 74 61 be 97 5d 0c 3f c8 83 79 be 40 96 88 3f
       -0.22017008 0.54830307 -0.24366677 1.0670853
000070 18 ee 63 3d 9f 49 4d be 96 c3 11 bf 6a 35 87 bf
       0.055646986 -0.20047615 -0.56939065 -1.0563176
000080 16 df b7 3f bc cf 14 3d 15 29 94 3e 83 6d c7 be
       1.4364955 0.036330923 0.28937593 -0.38950738
000090 a7 b6 93 bf 22 9c 35 3f b8 6a f2 be 35 d3 78 bf
       -1.1540116 0.70941365 -0.47347045 -0.97197276
0000a0 28 2a 96 3f d8 25 17 bf 6c aa f8 be 53 4e 25 bf
       1.1731615 -0.5904212 -0.48567522 -0.6457264
0000b0 9d 7c a5 3e f8 3a ea 3d 99 55 9d bd ed e7 13 be
       0.32321635 0.11437029 -0.07682342 -0.14443941
0000c0 06 a8 eb bf e6 39 a8 3e 53 75 c2 bf fa 13 a9 3e
       -1.8410652 0.32856673 -1.5192055 0.33023053
0000d0 7b b6 c5 be b8 a6 87 bf ba 38 1a 3f 18 78 15 3e
       -0.38615784 -1.0597754 0.6024281 0.14596593
0000e0 40 7c 4c 3d fa ca 1c bf f0 17 37 3d 47 13 d8 be
       0.04992318 -0.6124722 0.044700563 -0.42202207
0000f0 c3 d0 ed be 38 df 61 bd d2 b9 f4 be 20 d7 44 3c
       -0.46448335 -0.05514452 -0.4779802 0.01201418
000100 d0 3e 53 be e2 5f d4 3e e6 cb 79 be 78 49 90 be
       -0.2062943 0.41479403 -0.24394187 -0.28181052
000110 5d 8f 69 bd 80 31 8d bd f4 91 60 be e0 a1 fa be
       -0.057021488 -0.06894207 -0.21930677 -0.48951626

model/conv2d_1/Conv2D_bias_fused_bn f4 [24]
000000 b2 c2 73 3f 22 4d a0 40 28 58 a1 be c1 12 10 bf
       0.95218956 5.0094156 -0.3151257 -0.56278616
000010 5b ec 74 40 25 2e 9e 40 26 56 40 3f a0 2a 60 40
       3.826926 4.943133 0.7513145 3.5026016
000020 1c 2a 9c 40 cc 92 dc 3f 97 2b a6 3e b2 8d 76 3e
       4.8801403 1.7232299 0.3245513 0.2407749
000030 48 ff 96 3d 06 6f 4d 40 2e 97 a6 3f f9 18 ab 40
       0.0737291 3.2099013 1.3014886 5.3467984
000040 5b c3 ef bf 76 a3 2b c0 8e ab 1c 40 5c f9 ba 3f
       -1.8731493 -2.6818519 2.4479709 1.4607348
000050 70 60 0d c1 38 ae 98 3f a8 63 27 c0 2a a5 44 c0
       -8.836044 1.1928167 -2.6154575 -3.0725808

model/conv2d/Conv2D_bias_fused_bn f4 [24]
000000 ea f8 cf bf 20 93 8e bc b4 bc 48 40 b0 28 a9 3f
       -1.6247838 -0.017404139 3.1365175 1.3215542
000010 4e 62 58 be 34 71 55 bf 60 7a 06 c0 5e 91 dd 3e
       -0.2113125 -0.8337586 -2.1012192 0.4327497
000020 dc 46 13 bf f0 0f de bc f4 de c0 3d 7c a6 4a bf
       -0.5753 -0.027107209 0.09417525 -0.79160285
000030 e1 41 2d bf 3b 9d 9a 3e d3 57 b6 bf 83 8e f8 bf
       -0.6767865 0.30198082 -1.4245552 -1.9418491
000040 d3 fe b9 be 66 a1 08 3e c4 75 88 bd 6c c5 ef 3f
       -0.36327228 0.13342819 -0.06663087 1.8732123
000050 b1 34 0d 40 16 d8 9e 3f 28 dc b1 3e bc b1 0e 40
       2.206341 1.2409694 0.34738278 2.229598

model/conv2d/Conv2D_weights_fused_bn_quantized u1 [24, 1, 3, 3]
000000 52 57 56 77 75 91 65 18 5f 59 a2 75 5b 78 62 68
       82 87 86 119 117 145 101 24 95 89 162 117 91 120 98 104
000010 07 43 6c 6f 5e 68 60 72 34 51 5f 5c 05 bf 5c 56
       7 67 108 111 94 104 96 114 52 81 95 92 5 191 92 86
000020 58 53 d6 03 71 5c 52 81 6e 25 29 44 b8 64 5b 48
       88 83 214 3 113 92 82 129 110 37 41 68 184 100 91 72
000030 47 30 e4 69 61 2b 86 4a 52 9c 4e 51 42 40 76 45
       71 48 228 105 97 43 134 74 82 156 78 81 66 64 118 69
000040 dc 1e 5b 56 54 68 01 ab 7a 55 47 70 68 52 12 cd
       220 30 91 86 84 104 1 171 122 85 71 112 104 82 18 205
000050 39 56 65 62 41 5e 81 4d 66 67 44 90 87 69 30 50
       57 86 101 98 65 94 129 77 102 103 68 144 135 105 48 80
000060 68 55 56 57 5a 5e 5a 67 4c 5d 22 bc 28 8c 59 3c
       104 85 86 87 90 94 90 103 76 93 34 188 40 140 89 60
000070 a9 3f 9e 43 45 69 5a 5e 7d 5e 39 67 5e 5e 45 53
       169 63 158 67 69 105 90 94 125 94 57 103 94 94 69 83
000080 38 af 54 ac 19 78 47 59 65 5e 3e 79 52 20 ff 13
       56 175 84 172 25 120 71 89 101 94 62 121 82 32 255 19
000090 61 1f 4f 4d d7 7f 6e 2b 4b 74 5b 61 00 7c 5e b8
       97 31 79 77 215 127 110 43 75 116 91 97 0 124 94 184
0000a0 35 60 64 9a 5f 65 39 51 56 69 4d 63 25 45 65 44
       53 96 100 154 95 101 57 81 86 105 77 99 37 69 101 68
0000b0 5f 54 b2 7d 5b 67 5b 27 89 46 49 7d 7e 5d 5c 64
       95 84 178 125 91 103 91 39 137 70 73 125 126 93 92 100
0000c0 93 35 79 75 42 42 4c 49 61 4d 60 41 a4 72 5c 59
       147 53 121 117 66 66 76 73 97 77 96 65 164 114 92 89
0000d0 59 6e 5d 3d 6e 81 42 6b
       89 110 93 61 110 129 66 107

model/conv2d_1/Conv2D_weights_fused_bn_quantized u1 [24, 24, 1, 3]
000000 79 76 7d 91 87 8b 7d b6 a3 7c a3 7a 75 94 7f 6e
       121 118 125 145 135 139 125 182 163 124 163 122 117 148 127 110
000010 99 a5 85 8f 7e 6b 8d 65 85 7c 6b 7f a7 9f 8b 9a
       153 165 133 143 126 107 141 101 133 124 107 127 167 159 139 154
000020 ae 30 ad 68 86 8a 65 8e 6a 8e c7 ae d1 9b 86 48
       174 48 173 104 134 138 101 142 106 142 199 174 209 155 134 72
000030 b7 d1 b7 98 9f c3 98 95 7a 6d 96 6c a4 ab 6d 8b
       183 209 183 152 159 195 152 149 122 109 150 108 164 171 109 139
000040 78 74 5b 56 7e 11 73 8a 6a bf 79 7d 5b 7f 57 73
       120 116 91 86 126 17 115 138 106 191 121 125 91 127 87 115
000050 77 87 a2 8c b0 7b ac 62 a1 95 a7 b1 6f 77 0f 8e
       119 135 162 140 176 123 172 98 161 149 167 177 111 119 15 142
000060 64 5a 47 8e b8 62 5b 86 6e d2 5f 69 7e 9a b7 77
       100 90 71 142 184 98 91 134 110 210 95 105 126 154 183 119
000070 67 79 81 b9 81 94 bb 9c 62 50 a5 84 72 a7 60 8a
       103 121 129 185 129 148 187 156 98 80 165 132 114 167 96 138
000080 85 99 c1 6e 71 62 56 73 92 98 4a 70 c3 7a 40 b1
       133 153 193 110 113 98 86 115 146 152 74 112 195 122 64 177
000090 84 9c 8d 7c 84 8f ac 73 b3 8d 50 99 65 28 23 5d
       132 156 141 124 132 143 172 115 179 141 80 153 101 40 35 93
0000a0 5d 81 30 95 a5 6a a6 66 67 55 b0 76 7d c6 70 56
       93 129 48 149 165 106 166 102 103 85 176 118 125 198 112 86
0000b0 60 5e 86 83 87 5c a2 a1 8d 97 8e bf a1 a1 28 94
       96 94 134 131 135 92 162 161 141 151 142 191 161 161 40 148
0000c0 7a 7f 8b 55 49 7a 60 79 7b af 90 99 ab 5f 8e 8a
       122 127 139 85 73 122 96 121 123 175 144 153 171 95 142 138
0000d0 90 85 5d 8a 7d 9b 6f 7f aa 85 90 65 7c 72 3a 72
       144 133 93 138 125 155 111 127 170 133 144 101 124 114 58 114
0000e0 6c 7a 73 80 9c a0 a2 7d 7f 82 58 74 91 76 9f 9a
       108 122 115 128 156 160 162 125 127 130 88 116 145 118 159 154
0000f0 7e 7f 93 85 84 78 93 7d 67 97 87 8d 8e a2 84 7e
       126 127 147 133 132 120 147 125 103 151 135 141 142 162 132 126

model/conv2d_2/Conv2D_weights_fused_bn_quantized u1 [24, 24, 3, 1]
000000 77 76 9c 94 96 6e 9a b6 85 65 8c 64 6e 87 93 53
       119 118 156 148 150 110 154 182 133 101 140 100 110 135 147 83
000010 57 4d 78 57 92 80 7c 62 95 7e 3b 3e 41 b7 45 90
       87 77 120 87 146 128 124 98 149 126 59 62 65 183 69 144
000020 7d 73 88 90 6b 74 8d 90 90 6e 7a 76 80 95 89 83
       125 115 136 144 107 116 141 144 144 110 122 118 128 149 137 131
000030 7b 85 64 42 79 bd 8b 6d 6e 82 8f c7 64 85 5c 7f
       123 133 100 66 121 189 139 109 110 130 143 199 100 133 92 127
000040 80 41 c1 6d 29 9a 90 57 77 76 7d 74 70 76 89 83
       128 65 193 109 41 154 144 87 119 118 125 116 112 118 137 131
000050 8d 88 8d 88 64 65 6e 6b 64 65 81 76 7d 95 95 88
       141 136 141 136 100 101 110 107 100 101 129 118 125 149 149 136
000060 80 79 7b 73 65 4f 6b 6c 64 60 67 64 71 71 79 79
       128 121 123 115 101 79 107 108 100 96 103 100 113 113 121 121
000070 90 9a 45 45 44 82 74 71 89 74 67 7f 7b 74 92 a0
       144 154 69 69 68 130 116 113 137 116 103 127 123 116 146 160
000080 9e 56 5e 74 6a 6e 7e 6a 63 67 86 ac a6 6f 78 72
       158 86 94 116 106 110 126 106 99 103 134 172 166 111 120 114
000090 8e 93 ab 6c 71 62 70 8d 8f 6c 6d 51 6d 61 5c 82
       142 147 171 108 113 98 112 141 143 108 109 81 109 97 92 130
0000a0 7d 7f 79 7d 85 72 83 7e 62 7c 6f 81 81 74 6c 77
       125 127 121 125 133 114 131 126 98 124 111 129 129 116 108 119
0000b0 72 6c 5e 56 a6 b5 ba 74 59 51 72 6d 57 67 6f 7a
       114 108 94 86 166 181 186 116 89 81 114 109 87 103 111 122
0000c0 6f 87 74 88 79 75 82 96 8a 9b 95 a2 7e 8d 5e 76
       111 135 116 136 121 117 130 150 138 155 149 162 126 141 94 118
0000d0 72 77 8b 7d 6d 76 80 71 78 84 67 67 6c 70 66 79
       114 119 139 125 109 118 128 113 120 132 103 103 108 112 102 121
0000e0 7c 72 78 59 82 9a 9f a8 79 72 68 78 72 6b 5d 74
       124 114 120 89 130 154 159 168 121 114 104 120 114 107 93 116
0000f0 8d 62 54 78 81 68 ac 81 63 8d 8e 83 94 9b 83 5b
       141 98 84 120 129 104 172 129 99 141 142 131 148 155 131 91

model/conv2d_3/Conv2D_weights_fused_bn_quantized u1 [48, 24, 1, 3]
000000 a1 94 9d 8f 9c 91 9e 89 99 7d ad 96 90 85 9b b2
       161 148 157 143 156 145 158 137 153 125 173 150 144 133 155 178
000010 78 7b 6c a4 9a 92 b3 bb 95 86 b1 69 a3 b1 a1 94
       120 123 108 164 154 146 179 187 149 134 177 105 163 177 161 148
000020 8c 88 93 90 a2 9b a2 95 94 8a a7 96 8a a1 8c 89
       140 136 147 144 162 155 162 149 148 138 167 150 138 161 140 137
000030 96 93 9d 6e d6 c0 90 b9 96 9b a5 88 8d 88 93 a7
       150 147 157 110 214 192 144 185 150 155 165 136 141 136 147 167
000040 9c 94 9e af 7a 4c b6 b8 96 86 6c 93 9e aa 90 9b
       156 148 158 175 122 76 182 184 150 134 108 147 158 170 144 155
000050 8a 8d e6 7d 98 93 82 68 ed 96 7b 8f 7b b8 8f 89
       138 141 230 125 152 147 130 104 237 150 123 143 123 184 143 137
000060 72 7c 78 84 ad 91 94 ba 7e 91 74 8c 93 8b 71 af
       114 124 120 132 173 145 148 186 126 145 116 140 147 139 113 175
000070 6e 99 7c a5 78 ab c4 86 89 b0 8c 9a 88 a5 79 a7
       110 153 124 165 120 171 196 134 137 176 140 154 136 165 121 167
000080 c1 8c f8 84 9b 98 a8 a9 7f a4 74 8b 6f a8 aa 96
       193 140 248 132 155 152 168 169 127 164 116 139 111 168 170 150
000090 a1 96 8a ac ce 91 8d bd a4 b7 89 78 ac 8f b6 83
       161 150 138 172 206 145 141 189 164 183 137 120 172 143 182 131
0000a0 7f 93 9b 9d 86 46 63 6f 8c 6c a6 b4 a4 ce ab 8b
       127 147 155 157 134 70 99 111 140 108 166 180 164 206 171 139
0000b0 98 ba be a5 89 86 83 8d aa 6c b4 8b a9 b4 6b bc
       152 186 190 165 137 134 131 141 170 108 180 139 169 180 107 188
0000c0 a2 95 95 a7 8c 83 b5 9b 99 b4 8b 9f af c4 b9 92
       162 149 149 167 140 131 181 155 153 180 139 159 175 196 185 146
0000d0 92 ad 89 5c 60 84 8a 74 a9 aa 92 64 89 97 7d ad
       146 173 137 92 96 132 138 116 169 170 146 100 137 151 125 173
0000e0 9b ac a1 91 87 8f 75 91 8a 9a 9d aa 89 a7 9d 96
       155 172 161 145 135 143 117 145 138 154 157 170 137 167 157 150
0000f0 9c 77 9e 86 7e 93 ae 79 9c a7 9e a3 97 ac 94 ac
       156 119 158 134 126 147 174 121 156 167 158 163 151 172 148 172

model/conv2d_4/Conv2D_weights_fused_bn_quantized u1 [48, 48, 3, 1]
000000 82 a1 a1 96 66 a1 77 7e a0 87 9c bc a2 8a 9b 86
       130 161 161 150 102 161 119 126 160 135 156 188 162 138 155 134
000010 aa 9b 7b 7e 9f a1 7a 5e 8d ab 8d 99 85 73 97 6b
       170 155 123 126 159 161 122 94 141 171 141 153 133 115 151 107
000020 89 76 4a 8e 5b 74 7f 87 86 78 97 80 b7 8a 5f 95
       137 118 74 142 91 116 127 135 134 120 151 128 183 138 95 149
000030 8d 88 66 82 90 98 96 a0 a1 75 7f a4 7c 68 b2 7a
       141 136 102 130 144 152 150 160 161 117 127 164 124 104 178 122
000040 66 7b 83 9c 81 7e 7e a0 9e 5e a2 9a 51 9a 82 5b
       102 123 131 156 129 126 126 160 158 94 162 154 81 154 130 91
000050 76 77 9d 5c 96 cb 78 7f 5c 7b 90 79 62 9e 97 7a
       118 119 157 92 150 203 120 127 92 123 144 121 98 158 151 122
000060 ac 87 b5 68 9f 52 88 70 8f 7b 44 a5 93 7a 88 7a
       172 135 181 104 159 82 136 112 143 123 68 165 147 122 136 122
000070 5f 8a 73 81 5f 71 6c 61 8b 89 43 68 75 9d 9e 86
       95 138 115 129 95 113 108 97 139 137 67 104 117 157 158 134
000080 8b 66 5f 6d 85 8c 7b 78 91 9a 9e b4 aa 6f ab 66
       139 102 95 109 133 140 123 120 145 154 158 180 170 111 171 102
000090 6a 77 53 8e 84 73 93 b2 7a 83 9b 87 71 8f 82 71
       106 119 83 142 132 115 147 178 122 131 155 135 113 143 130 113
0000a0 9a 7b 7c 63 72 81 6d 73 7b 74 ae 9c 94 9a 78 84
       154 123 124 99 114 129 109 115 123 116 174 156 148 154 120 132
0000b0 87 75 95 51 8f a1 73 8f 80 79 8d 71 76 88 98 74
       135 117 149 81 143 161 115 143 128 121 141 113 118 136 152 116
0000c0 7f 7a 89 8e 88 8b 7b 79 85 71 6c 24 83 5d 85 94
       127 122 137 142 136 139 123 121 133 113 108 36 131 93 133 148
0000d0 4e 65 90 6b 83 81 64 7a 64 5b 50 77 78 5c 78 93
       78 101 144 107 131 129 100 122 100 91 80 119 120 92 120 147
0000e0 71 85 61 93 92 7d 65 7d 8f 75 55 66 8c a4 a7 92
       113 133 97 147 146 125 101 125 143 117 85 102 140 164 167 146
0000f0 99 9b 85 7e 79 7a 81 98 86 83 aa 5a 95 77 99 88
       153 155 133 126 121 122 129 152 134 131 170 90 149 119 153 136

model/conv2d_5/Conv2D_weights_fused_bn_quantized u1 [48, 48, 1, 3]
000000 8e cf 8a 7c 79 69 cc 75 5c b8 7c 7c 74 6d 5d ac
       142 207 138 124 121 105 204 117 92 184 124 124 116 109 93 172
000010 9b c3 a8 7d 81 8d 84 a2 b3 90 a9 dc 68 c0 ce c8
       155 195 168 125 129 141 132 162 179 144 169 220 104 192 206 200
000020 8d 83 c2 b1 78 a5 b1 78 86 5c 8f c1 6e 9c d4 b2
       141 131 194 177 120 165 177 120 134 92 143 193 110 156 212 178
000030 a3 c8 b9 69 97 97 7a 86 96 91 a2 97 92 a5 aa 97
       163 200 185 105 151 151 122 134 150 145 162 151 146 165 170 151
000040 86 dc a2 bd ad 7d 7a c8 8c 69 6a ac 97 c7 c5 cc
       134 220 162 189 173 125 122 200 140 105 106 172 151 199 197 204
000050 a3 a7 a7 67 c1 b0 a7 5d aa 9f ae 55 9d b8 bb b0
       163 167 167 103 193 176 167 93 170 159 174 85 157 184 187 176
000060 95 9d 65 8f b3 99 83 69 7b b0 84 83 93 8a 53 ab
       149 157 101 143 179 153 131 105 123 176 132 131 147 138 83 171
000070 c0 56 9e ad a1 c4 ac a7 80 79 63 8c 60 78 8c c6
       192 86 158 173 161 196 172 167 128 121 99 140 96 120 140 198
000080 ae 77 db 73 84 48 8f 8c 67 bb ae 58 7e 7b 74 ab
       174 119 219 115 132 72 143 140 103 187 174 88 126 123 116 171
000090 7e 9d c0 b8 b7 ac 89 b3 a7 a9 7b 9e 93 99 89 95
       126 157 192 184 183 172 137 179 167 169 123 158 147 153 137 149
0000a0 bf 9d 84 6c 8b c2 bb b2 a9 6f 5a a7 b0 82 7f 6c
       191 157 132 108 139 194 187 178 169 111 90 167 176 130 127 108
0000b0 59 d1 b1 7c ab d1 9d 53 80 a9 99 a6 7e 94 9d 9b
       89 209 177 124 171 209 157 83 128 169 153 166 126 148 157 155
0000c0 7d 86 a2 ad 94 74 ba a2 a5 ae bc c0 91 91 7e c3
       125 134 162 173 148 116 186 162 165 174 188 192 145 145 126 195
0000d0 bc 93 c0 ad 7c 91 cb 6c ad 99 af b8 c5 8c d5 bc
       188 147 192 173 124 145 203 108 173 153 175 184 197 140 213 188
0000e0 ad 9b 73 6a 93 57 70 74 89 75 a4 9d 94 c5 b0 7f
       173 155 115 106 147 87 112 116 137 117 164 157 148 197 176 127
0000f0 a4 b8 7a b3 8e 69 93 b1 a8 9a 93 65 c9 dc cb 9f
       164 184 122 179 142 105 147 177 168 154 147 101 201 220 203 159

model/conv2d_6/Conv2D_weights_fused_bn_quantized u1 [48, 48, 3, 1]
000000 54 56 79 6d 6d 47 79 6a 7b 51 49 76 67 6a 6a 6a
       84 86 121 109 109 71 121 106 123 81 73 118 103 106 106 106
000010 93 91 6e 5c 69 4a 4e 79 9d 8a 61 47 79 63 8c 96
       147 145 110 92 105 74 78 121 157 138 97 71 121 99 140 150
000020 6f 3f 67 54 82 68 76 88 7a 97 44 49 51 6d 57 91
       111 63 103 84 130 104 118 136 122 151 68 73 81 109 87 145
000030 70 5d 84 80 6b 56 85 84 56 3e 82 a4 52 51 33 72
       112 93 132 128 107 86 133 132 86 62 130 164 82 81 51 114
000040 81 85 8a 7b 94 50 7c 82 77 89 87 56 62 72 81 7e
       129 133 138 123 148 80 124 130 119 137 135 86 98 114 129 126
000050 93 8c 75 91 75 61 3f a1 8d 65 70 5c 6a 7a 7f aa
       147 140 117 145 117 97 63 161 141 101 112 92 106 122 127 170
000060 7a 74 8f 54 6d 71 92 8c 68 84 71 4f 67 63 66 60
       122 116 143 84 109 113 146 140 104 132 113 79 103 99 102 96
000070 64 5a 60 54 7c 5a 67 6a 88 75 b5 81 61 82 6c 85
       100 90 96 84 124 90 103 106 136 117 181 129 97 130 108 133
000080 64 8b 6f 86 4c 5f 2b 65 63 57 69 70 41 7f 6c 8b
       100 139 111 134 76 95 43 101 99 87 105 112 65 127 108 139
000090 75 65 64 71 86 4e 69 46 5f 6e 5f 80 41 57 8b 41
       117 101 100 113 134 78 105 70 95 110 95 128 65 87 139 65
0000a0 48 5a 8e 95 b4 45 a0 78 7d 5c 7b 70 55 41 76 7a
       72 90 142 149 180 69 160 120 125 92 123 112 85 65 118 122
0000b0 62 7d 46 57 78 49 67 4a 73 82 67 68 51 9e 93 75
       98 125 70 87 120 73 103 74 115 130 103 104 81 158 147 117
0000c0 7d 66 71 c0 7a 4e 6b 5d b1 52 83 97 44 78 9c 79
       125 102 113 192 122 78 107 93 177 82 131 151 68 120 156 121
0000d0 65 83 2c 4a 61 61 71 76 7e 91 82 60 a3 99 66 48
       101 131 44 74 97 97 113 118 126 145 130 96 163 153 102 72
0000e0 6e 7c 89 77 5f 83 7f 71 7e 72 6d 4e 49 90 8e b5
       110 124 137 119 95 131 127 113 126 114 109 78 73 144 142 181
0000f0 6c 50 62 87 6c 43 2d 8e 80 39 a0 99 91 56 8f 6f
       108 80 98 135 108 67 45 142 128 57 160 153 145 86 143 111
